checkpoints/best_student_model.pth (torch, 459789 bytes, 21 tensors)

entry.weight f4 [32, 3, 3, 3]
-0.031320814 -0.091023885 -0.061866716 -0.10832569 0.18541843 0.029184397 0.02520708 -0.02483616
0.08025456 0.07485042 -0.061187405 -0.0025404491 -0.17580153 -0.057673566 -0.28029892 -0.20700994
-0.26078755 -0.013442416 0.21307378 0.08033326 0.22360572 0.16566227 0.30622077 0.14344381
0.1285114 0.096831545 -0.096184224 0.23208944 0.1206131 -0.0018501391 0.22391841 -0.17416978
-0.0989425 -0.13087197 -0.1368658 0.11608596 0.09714682 -0.16326618 -0.06737513 0.19108522
-0.018413361 -0.050443575 -0.20441613 -0.25415593 0.23240763 -0.029487215 -0.11478513 0.05111972
-0.04481448 0.019042179 0.11842383 0.099331215 -0.01824683 -0.00051546824 -0.13428634 -0.121277526
0.034755275 0.029152675 -0.23848511 -0.04924684 -0.18493627 -0.10890127 0.14046732 0.042263996
0.21256326 0.22928998 -0.05517464 -0.008081809 0.20235118 0.14534889 0.033115033 -0.008319026
0.04996674 0.1526964 -0.05392181 -0.07842296 0.15086287 0.060930997 -0.0036037804 0.117735356
-0.11235972 0.093366794 -0.12990326 0.1527727 -0.025728194 -0.034521364 0.25876263 -0.18551591
-0.21335196 0.13331057 -0.13350771 0.10692206 0.016445426 -0.013287781 0.033201728 -0.09488758
0.0705748 -0.11378351 0.13777527 -0.07510296 -0.05929384 0.0619603 0.19612595 0.24659482
0.14240174 -0.15210083 -0.25134248 -0.1576278 0.062777124 0.3392281 0.1651848 0.021057067
-0.3094201 -0.062012635 0.025319038 -0.12790005 0.07133566 0.041146897 0.20626202 -0.12171057
-0.17260605 -0.42964405 0.06473066 0.17471233 -0.13799208 0.03326279 -0.12656283 0.20659724
-0.17719278 0.090048894 -0.3232648 0.1410155 0.24614793 -0.059897415 0.067276545 0.05012627
-0.038213443 0.12652342 -0.05123022 0.018134272 0.10470275 -0.0060354252 -0.111520454 -0.13148838
-0.20983583 0.056252815 0.14701466 -0.25645185 -0.015364009 0.0100121265 -0.24194801 -0.2392415
-0.051926076 0.015855145 0.08809221 -0.01679539 0.03544528 -0.17572486 0.0020462791 -0.10046977
0.10245963 0.0774391 -0.021739684 -0.04043939 -0.022114856 0.25354844 0.29764563 0.12763666
0.15958056 0.27562362 0.12952146 -0.19517303 0.06200673 0.012363769 0.03354713 -0.1529265
-0.2184443 -0.21679462 0.020357914 -0.3094358 -0.02189392 -0.14541799 -0.12699388 -0.013238629
0.12618864 0.07000697 -0.18649746 0.043726403 0.1145839 -0.0041330606 -0.13709106 0.14086726
0.033971947 -0.1452135 0.19421127 0.005743161 -0.1551442 -0.09403467 -0.18379356 0.06567602
0.28906682 0.24683616 0.1484944 0.028369587 -0.014248739 -0.18529907 -0.07289772 -0.16339818
0.13293305 -0.1280661 0.24501829 -0.08522797 0.047984257 0.038549986 -0.10617215 -0.1388153
-0.026245149 0.037025932 0.049230643 0.00662955 0.14268453 -0.059002172 0.08854756 0.14649342
0.038196586 -0.009358279 -0.025854543 0.08313471 -0.18836212 0.046459712 0.025898848 0.017603416
-0.08975837 0.05575686 -0.23096342 0.13521509 0.028612997 0.14585048 0.14908165 -0.17849869
-0.046137758 0.09905422 -0.0699522 -0.09578666 0.22703594 -0.12170413 0.21112373 -0.064283
-0.03030548 0.032876305 0.095860735 -0.09131274 0.0057454123 0.1575759 -0.027423976 0.13332629
00000000: 414a 00bd bb6a babd f467 7dbd dcd9 ddbd
00000010: 54de 3d3e 1e14 ef3c 147f ce3c 3475 cbbc
00000020: 815c a43d 2d4b 993d a59f 7abd aa7d 26bb
00000030: 5105 34be 1e3b 6cbd 5783 8fbe 6afa 53be
00000040: f285 85be 943d 5cbc 0330 5a3e c485 a43d
00000050: e6f8 643e 5fa3 293e f8c8 9c3e efe2 123e
00000060: 7e98 033e 9e4f c63d 3cfc c4bd dba8 6d3e
00000070: 0004 f73d 5e80 f2ba de4a 653e 9059 32be
00000080: 5ea2 cabd 4d03 06be 8c26 0cbe 7abe ed3d
00000090: e9f4 c63d 402f 27be f9fb 89bd d8ab 433e
000000a0: 9ed7 96bc ec9d 4ebd 7652 51be ba20 82be
000000b0: 44fc 6d3e 2c8f f1bc 7714 ebbd e962 513d
000000c0: 638f 37bd 58fe 9b3c 3188 f23d 2a6e cb3d
000000d0: 607a 95bc 7d20 07ba 5c82 09be 5a60 f8bd
000000e0: 8c5b 0e3d 97d1 ee3c 7135 74be 0eb7 49bd
000000f0: ef5f 3dbe a107 dfbd aad6 0f3e 031d 2d3d
00000100: 2faa 593e feca 6a3e cefe 61bd 9069 04bc
00000110: 2635 4f3e 57d6 143e a1a3 073d 864c 08bc
00000120: eda9 4c3d 725c 1c3e 1edd 5cbd 389c a0bd
00000130: cc7b 1a3e c892 793d 672d 6cbb 3c1f f13d
00000140: da1c e6bd 1737 bf3d 5c05 05be 7270 1c3e
00000150: efc3 d2bc 4666 0dbd 897c 843e e2f7 3dbe
00000160: f078 5abe 9182 083e 3fb6 08be f4f9 da3d
00000170: 8fb8 863c feb4 59bc 89fe 073d 6b54 c2bd
00000180: 8589 903d 5407 e9bd f614 0d3e 95cf 99bd
00000190: 19de 72bd 15ca 7d3d 3ed5 483e 5a83 7c3e
000001a0: c3d1 113e 52c0 1bbe f6af 80be 2f69 21be
000001b0: 4b91 803d 4eaf ad3e 3426 293e df7f ac3c
000001c0: 506c 9ebe f600 7ebd df69 cf3c 3bf8 02be
000001d0: 6e18 923d a689 283d 5a36 533e 6443 f9bd
000001e0: a4bf 30be 4efa dbbe 8291 843d cae7 323e
000001f0: cc4d 0dbe 903e 083d b099 01be 3a8e 533e
00000200: 0672 35be 8e6b b83d f782 a5be 5e66 103e
00000210: 340e 7c3e fe56 75bd 49c8 893d 3451 4d3d
00000220: b385 1cbd 5b8f 013e c7d6 51bd 538e 943c
00000230: 656e d63d d1c4 c5bb d664 e4bd e4a4 06be
00000240: 34df 56be 5a69 663d 038b 163e a84d 83be
00000250: 53b9 7bbc e709 243c 38c1 77be b9fb 74be
00000260: 70b0 54bd a6e2 813c b069 b43d 7c96 89bc
00000270: 122f 113d 38f1 33be de1a 063b 18c3 cdbd
00000280: 5bd6 d13d 6498 9e3d 6c17 b2bc c6a3 25bd
00000290: 372a b5bc 1ad1 813e 0265 983e 2fb3 023e
000002a0: 1669 233e 8a1e 8d3e 46a1 043e 70db 47be
000002b0: c5fa 7d3d 6891 4a3c b768 093d c498 1cbe
000002c0: ddaf 5fbe 69ff 5dbe a4c5 a63c 5f6e 9ebe
000002d0: e15a b3bc 74e8 14be af0a 02be d6e6 58bc
000002e0: 9837 013e d05f 8f3d 31f9 3ebe 751a 333d
000002f0: f7aa ea3d a06e 87bb 9961 0cbe 823f 103e
00000300: 2b26 0b3d d9b2 14be 52df 463e 2031 bc3b
00000310: 1fde 1ebe 4095 c0bd 6134 3cbe 2681 863d
00000320: 9100 943e 9ec2 7c3e ea0e 183e 5667 e83c
00000330: 8b73 69bc 0abf 3dbe 664b 95bd da51 27be
00000340: 9a1f 083e c223 03be 13e6 7a3e 008c aebd
00000350: 248b 443d 97e6 1d3d c970 d9bd 9925 0ebe
00000360: 1100 d7bc 81a8 173d 12a6 493d b23c d93b
00000370: e51b 123e 43ac 71bd 6c58 b53d 5f02 163e
00000380: 0674 1c3d 7853 19bc e8cc d3bc 8842 aa3d
00000390: 00e2 40be 8a4c 3e3d d229 d43c 0a35 903c
000003a0: 3cd3 b7bd 4e61 643d ad81 6cbe d375 0a3e
000003b0: ce65 ea3c d459 153e dca8 183e 5cc8 36be
000003c0: f2fa 3cbd f0dc ca3d 1943 8fbd cc2b c4bd
000003d0: 1c7c 683e 0440 f9bd d230 583e cea6 83bd
000003e0: 3343 f8bc 4ea9 063d a252 c43d 2d02 bbbd
000003f0: 0344 bc3b 945b 213e 3fa8 e0bc b086 083e

entry.bias f4 [32]
-0.066879466 0.006374975 -0.008923663 -0.008636155 0.04988417 0.09742074 -0.058341935 -0.0070319413
-0.16686048 -0.30650046 0.657913 -0.039631877 0.18350168 -0.02905221 0.04005546 0.06693477
-0.050263755 -0.0935093 0.18035738 0.072563656 0.25574163 0.030327482 -0.25981247 0.048496723
0.3045332 0.0819266 -0.16513754 0.031999167 0.28749937 0.0029711144 0.027581146 0.013613461
00000000: 1af8 88bd 2be5 d03b 8e34 12bc a97e 0dbc
00000010: 5853 4c3d 8684 c73d f4f7 6ebd 336c e6bb
00000020: 79dd 2abe a1ed 9cbe fd6c 283f 0955 22bd
00000030: dde7 3b3e e6fe edbc 3211 243d 1915 893d
00000040: 5ee1 4dbd ce81 bfbd 9baf 383e 419c 943d
00000050: 91f0 823e 5771 f83c 2406 85be 80a4 463d
00000060: c7eb 9b3e 22c9 a73d d119 29be 8f11 033d
00000070: 1e33 933e 07b7 423b dbf1 e13c fe0a 5f3c

blocks.0.block.0.weight f4 [32, 32, 3, 3]
0.040345334 0.05188804 0.09615559 0.005498695 0.06591842 0.06000007 0.046643667 -0.033066634
0.026533375 -0.010692909 -0.016527958 0.0028237712 0.008119046 -0.06539041 -0.02108847 -0.0523179
0.023750914 0.07541552 0.040431354 -0.061086908 -0.06023754 0.029723521 0.017090596 -0.093810365
0.015411599 -0.018800637 -0.028674414 0.04182602 0.023587143 0.02796601 -0.020344827 0.029037494
-0.06603261 -0.04910415 0.037833367 -0.020645129 0.04195035 -0.10112979 -0.024903797 -0.0031664493
-0.04020041 -0.17582294 0.13757092 0.12025411 0.092311695 0.029814377 -0.053967435 -0.016499149
-0.10139604 0.0009999011 -0.0078015435 -0.087847084 0.0058213132 0.011557011 -0.03099661 0.0511047
0.02581299 -0.038796306 0.04443077 0.09881874 -0.06299743 0.0066193417 0.014053462 0.1013985
0.01532177 0.014616516 0.0162789 -0.0081492225 -0.06941011 0.04598111 -0.043039836 -0.0036942158
0.02645043 0.106576964 0.017325774 0.020770963 0.1456339 0.030336646 -0.02147994 0.05176036
0.10288239 0.01467747 -0.025916388 0.099155664 0.0790373 0.05923431 0.10491798 0.067116655
-0.0016138231 0.05156585 -0.036393788 -0.02341298 0.026420774 0.037142906 0.035209876 -0.023380546
-0.08135689 0.022643503 -0.032001015 0.002090482 0.02320824 -0.0020420707 0.061930895 -0.0036776774
0.055206265 -0.0005975446 0.054102335 0.021426046 -0.06432959 0.036031343 -0.10713536 -0.10569593
-0.01935479 -0.10522458 -0.081040405 -0.021954061 -0.12696703 0.08935403 -0.0039735725 0.0011028848
0.08269886 0.05138822 0.017668558 0.07014306 0.118712656 -0.08966682 -0.022925232 -0.046690382
-0.036671214 -0.011243772 -0.09217147 0.03390632 -0.09102111 -0.042979877 0.03471015 0.022508804
0.0073778783 0.044578925 -0.05798063 -0.029930646 -0.021169206 -0.019142646 0.04166363 0.105469465
0.037183363 0.08309698 0.04460023 0.07547695 0.0658445 -0.0757612 0.06705269 -0.015992466
-0.042770848 -0.016348632 0.014952304 0.09315386 -0.008904509 0.008954171 0.041965287 -0.038337734
0.05699283 0.012502259 0.00076745165 0.026691303 -0.061423603 -0.047568522 -0.07068099 -0.050808936
0.052975122 -0.015370664 -0.026247514 -0.037443344 0.024269741 0.056607105 -0.06941067 0.020185797
0.042891763 -0.0067535583 0.06757808 0.08773413 0.00757876 -0.02362977 -0.08380573 -0.04796058
-0.08087916 -0.14352794 -0.098146975 -0.11883199 -0.13154894 -0.0085990755 -0.064170934 -0.09012705
0.032787185 0.054764923 -0.045588646 0.10960292 0.09422191 0.048089705 0.060278285 0.014460264
0.086150914 -0.026567403 0.008500052 0.050265636 0.0039706733 0.06632039 0.11803278 -0.055912655
-0.016634578 -0.058841188 -0.054517463 -0.09491475 0.002607797 -0.08282349 -0.1490037 -0.043753162
-0.043680288 -0.0030780174 -0.03611732 -0.05472942 -0.051431254 -0.08645443 0.01730033 -0.0862225
-0.08837662 -0.06028853 -0.04761526 -0.0049178777 -0.011480431 -0.048421584 -0.09953417 0.0055093043
-0.041111033 -0.033566866 0.04055227 0.037996106 0.06206706 0.031586442 0.12051205 0.12735334
0.031133132 0.064871915 0.06647201 -0.0034780588 -0.09207123 -0.053773202 0.037350725 -0.028398132
-0.08016462 0.055084575 0.043195143 -0.04040524 -0.057421178 -0.018497445 -0.06836626 -0.04218035
00000000: 2641 253d 8e88 543d 39ed c43d 662e b43b
00000010: 3d00 873d a2c2 753d 6e0d 3f3d e170 07bd
00000020: 855c d93c 5031 2fbc a465 87bc 050f 393b
00000030: bf05 053c 68eb 85bd bac1 acbc 4b4b 56bd
00000040: 4791 c23c 7473 9a3d 599b 253d 4436 7abd
00000050: a4bb 76bd be7e f33c 9401 8c3c a61f c0bd
00000060: ee80 7c3c cb03 9abc 9be6 eabc c351 2b3d
00000070: d339 c13c f918 e53c 32aa a6bc 0ae0 ed3c
00000080: 1b3c 87bd 6f21 49bd 29f7 1a3d f91f a9bc
00000090: 21d4 2b3d 231d cfbd 0c03 ccbc 3484 4fbb
000000a0: 2fa9 24bd ee0a 34be 64df 0c3e c947 f63d
000000b0: ea0d bd3d 483d f43c f50c 5dbd 3929 87bc
000000c0: baa8 cfbd 1d0f 833a 17a4 ffbb 2ce9 b3bd
000000d0: b7c0 be3b 9e59 3d3c 9aec fdbc 2953 513d
000000e0: c375 d33c e0e8 1ebd 0afd 353d 7b61 ca3d
000000f0: cc04 81bd 10e7 d83b 7e40 663c 04aa cf3d
00000100: 2908 7b3c 1d7a 6f3c 545b 853c 5184 05bc
00000110: e326 8ebd b056 3c3d 8a4a 30bd a81a 72bb
00000120: 92ae d83c 0645 da3d c8ee 8d3c de27 aa3c
00000130: 0e21 153e 8f84 f83c b3f6 afbc ac02 543d
00000140: 01b4 d23d c579 703c 9b4e d4bc 2012 cb3d
00000150: 4fde a13d ad9f 723d 3ddf d63d 7574 893d
00000160: eb86 d3ba b636 533d a711 15bd 94cc bfbc
00000170: 6170 d83c 2923 183d 3b38 103d 8f88 bfbc
00000180: 719e a6bd de7e b93c 7f13 03bd 7800 093b
00000190: 351f be3c 43d4 05bb 40ab 7d3d 3005 71bb
000001a0: f71f 623d 8aa4 1cba 699a 5d3d ad85 af3c
000001b0: 3bbf 83bd 9a95 133d c969 dbbd 1c77 d8bd
000001c0: f08d 9ebc fc7f d7bd 83f8 a5bd 01d9 b3bc
000001d0: a503 02be 3fff b63d be34 82bb ac8e 903a
000001e0: 055e a93d 747c 523d a7bd 903c 2aa7 8f3d
000001f0: 9f1f f33d 3da3 b7bd b2cd bbbc 6a3e 3fbd
00000200: 8e34 16bd cc37 38bc 65c4 bcbd 5ae1 0a3d
00000210: 4769 babd ab0b 30bd 3b2c 0e3d 6264 b83c
00000220: 21c2 f13b 6498 363d 197d 6dbd 1d31 f5bc
00000230: 0b6b adbc 0ad1 9cbc 7ca7 2a3d 6000 d83d
00000240: 954d 183d c02e aa3d bbae 363d a993 9a3d
00000250: 7bd9 863d b028 9bbd ec52 893d a202 83bc
00000260: 7c30 2fbd 91ed 85bc 82fa 743c 73c7 be3d
00000270: 38e4 11bc 84b4 123c cbe3 2b3d 0708 1dbd
00000280: 5071 693d 46d6 4c3c cf2e 493a b8a7 da3c
00000290: 5197 7bbd 36d7 42bd 32c1 90bd 081d 50bd
000002a0: 71fc 583d 3dd5 7bbc 0705 d7bc 315e 19bd
000002b0: 56d1 c63c dadc 673d 2e27 8ebd af5c a53c
000002c0: 46af 2f3d f44c ddbb 6066 8a3d f4ad b33d
000002d0: 3f57 f83b 3893 c1bc 57a2 abbd 5072 44bd
000002e0: f9a3 a5bd fdf8 12be 4801 c9bd 305e f3bd
000002f0: c4b4 06be 23e3 0cbc 0d6c 83bd 8894 b8bd
00000300: db4b 063d 2f51 603d 29bb 3abd 7f77 e03d
00000310: 6bf7 c03d b6f9 443d 5de6 763d beea 6c3c
00000320: e46f b03d e2a3 d9bc cd43 0b3c 57e3 4d3d
00000330: 6c1c 823b fcd2 873d 2cbb f13d ab04 65bd
00000340: 3d45 88bc 7503 71bd b44d 5fbd aa62 c2bd
00000350: 93e7 2a3b 5d9f a9bd 6d94 18be 8436 33bd
00000360: 1aea 32bd 90b8 49bb c1ef 13bd f52b 60bd
00000370: 94a9 52bd 050f b1bd 6cb9 8d3c 6c95 b0bd
00000380: cdfe b4bd 1bf1 76bd 3808 43bd 2626 a1bb
00000390: 6b18 3cbc b655 46bd 92d8 cbbd 6587 b43b
000003a0: 0b64 28bd 697d 09bd 231a 263d cea1 1b3d
000003b0: 083a 7e3d c960 013d 06cf f63d ea68 023e
000003c0: e90a ff3c 91db 843d 7a22 883d 25f0 63bb
000003d0: d78f bcbd 4a41 5cbd 13fd 183d 33a3 e8bc
000003e0: 592d a4bd 5da0 613d 64ed 303d f77f 25bd
000003f0: 7832 6bbd f487 97bc 9c03 8cbd 4dc5 2cbd

blocks.0.block.3.weight f4 [32, 32, 3, 3]
0.008833136 -0.04589063 -0.063687235 -0.10368033 -0.12170133 -0.07047868 -0.06867097 -0.0057343263
-0.06508723 0.028191932 0.0075643877 -0.05680466 0.023977716 0.051732328 -0.019845044 -0.046469536
0.082203865 0.060115498 -0.028715016 0.0334466 0.0077140504 -0.057009134 -0.052723296 -0.033042774
0.003978636 -0.020085026 -0.06362893 -0.035473865 0.021875301 0.009502507 -0.034931038 0.03502819
-0.019410443 0.04045663 0.08635721 -0.01710718 0.02045505 -0.020504618 0.0179376 -0.054344263
0.0995143 0.03996933 0.019235475 0.008676861 0.017659122 0.09119534 0.038811505 0.051902976
0.07098231 0.12383148 0.07516674 0.07755653 0.036561 0.06908572 -0.04260401 0.05800973
-0.020599017 0.0540369 0.013709024 -0.014771619 0.016531378 -0.10674767 0.03618502 0.1301448
0.06985795 0.082042076 0.067464136 0.070543125 -0.0012555183 0.14831297 0.034483492 0.15197472
-0.09361527 -0.021077061 -0.04566313 -0.08057621 -0.08891974 -0.053259484 -0.08263479 -0.093514144
-0.07189253 0.029940194 0.021215107 -0.019173406 -0.012463118 -0.057724506 -0.106311776 -0.04383387
-0.06597712 -0.0024823737 0.0019116664 0.055417944 0.0045488453 -0.02285183 0.090791956 -0.02519365
-0.009698125 0.034855485 -0.05383437 -0.031856414 -0.031701427 -0.08498659 -0.05055029 0.02560167
0.039337616 -0.08139531 -0.007326244 0.026645593 0.033449143 0.054544345 0.1210811 0.031655177
-0.017165586 0.053239897 0.041282184 0.015068966 0.079723395 0.055897016 0.033990644 0.063616484
-0.044058554 -0.008785645 0.039711747 0.10581241 0.01893163 0.11171279 0.004852488 -0.017125996
-0.024085578 -0.06713682 0.05626658 -0.049073655 -0.114816055 0.038777802 0.023131818 0.0077312035
-0.06789597 0.013961049 0.019964565 -0.032037694 -0.0043975464 0.009337922 0.016987277 -0.018362703
-0.032740366 -0.016327932 -0.06602834 0.055108182 0.029795632 -0.026344258 -0.037906356 0.0051635928
-0.064321615 0.029567465 0.11360203 0.1298766 0.06246428 0.16092679 0.09955102 0.08837025
0.14670773 0.0745603 -0.081226744 0.16072997 0.07924577 -0.038991094 0.16899136 0.11313281
-0.03269279 0.0123350145 -0.022080163 -0.03157783 -0.006219354 -0.04126752 -0.02846053 0.011948621
0.007771432 -0.0750498 -0.032863893 0.0038383086 -0.080154575 -0.023856778 -0.043458022 0.020165352
-0.04563551 -0.06868121 0.039109305 -0.09243875 0.0047827787 0.027644042 0.031478137 -0.015583192
-0.0037831734 0.009018099 0.02545082 -0.036674697 0.027745431 -0.008371459 0.026269067 -0.016358258
0.07435949 -0.010968773 -0.043592587 0.005492989 -0.030336864 0.04989868 -0.031396516 0.082965866
0.07846578 0.09186046 0.0460874 0.014524632 -0.010947221 0.04868457 0.046733115 0.0076977853
-0.06815995 -0.045656983 -0.026479062 0.04455533 0.10056269 0.0445732 -0.04356404 -0.022109605
-0.05722771 -0.028388726 0.08468042 0.019535877 -0.015564832 0.06427598 0.06505447 -0.027008891
-0.02196357 -0.025694529 0.06947619 0.12624058 0.12821625 0.14392835 0.093766145 0.14468065
0.12397934 0.11747232 0.17419866 0.10847488 0.14020483 0.101448804 0.15897164 0.1400327
0.07821602 0.1324991 0.05217338 0.11093811 0.058812525 0.0506527 0.06123519 0.12675485
00000000: dcb8 103c d0f7 3bbd 746e 82bd 5a56 d4bd
00000010: 8c3e f9bd 2057 90bd 5ea3 8cbd 04e7 bbbb
00000020: 744c 85bd c4f2 e63c afde f73b 01ac 68bd
00000030: ea6c c43c 47e5 533d 1392 a2bc d756 3ebd
00000040: 805a a83d ab3b 763d c13b ebbc 4dff 083d
00000050: 25c6 fc3b 6982 69bd 62f4 57bd dc57 07bd
00000060: 385f 823b 5a89 a4bc e24f 82bd 0b4d 11bd
00000070: d533 b33c 67b0 1b3c d913 0fbd b879 0f3d
00000080: a602 9fbc dab5 253d 0ddc b03d 5b24 8cbc
00000090: 5991 a73c 4df9 a7bc e0f1 923c 1798 5ebd
000000a0: 27ce cb3d e1b6 233d b793 9d3c 6529 0e3c
000000b0: dda9 903c 9fc4 ba3d d0f8 1e3d 3798 543d
000000c0: 2c5f 913d 5c9b fd3d 05f1 993d f5d5 9e3d
000000d0: fdc0 153d d07c 8d3d 8b81 2ebd 9c9b 6d3d
000000e0: 45bf a8bc cc55 5d3d d09b 603c a904 72bc
000000f0: d06c 873c 869e dabd be36 143d ae44 053e
00000100: af11 8f3d ad05 a83d a32a 8a3d ea78 903d
00000110: 3490 a4ba 5bdf 173e 903e 0d3d 439f 1b3e
00000120: 5db9 bfbd cda9 acbc 4309 3bbd 2405 a5bd
00000130: 8d1b b6bd 9e26 5abd 6e3c a9bd 5884 bfbd
00000140: 643c 93bd 2345 f53c 4ecb ad3c 8c11 9dbc
00000150: 1b32 4cbc 8870 6cbd fdb9 d9bd 258b 33bd
00000160: 031f 87bd 52af 22bb e190 fa3a edfd 623d
00000170: 7b0e 953b c333 bbbc 22f1 b93d ea62 cebc
00000180: e2e4 1ebc a0c4 0e3d 6e81 5cbd df7b 02bd
00000190: 5bd9 01bd 730d aebd d20d 4fbd 98ba d13c
000001a0: 7b20 213d 96b2 a6bd fd10 f0bb dc47 da3c
000001b0: f801 093d e469 5f3d 5ef9 f73d dca8 013d
000001c0: d89e 8cbc 1412 5a3d 8217 293d d3e3 763c
000001d0: 0546 a33d 45f4 643d c639 0b3d 5c49 823d
000001e0: be76 34bd aaf1 0fbc c9a8 223d 2db4 d83d
000001f0: 8116 9b3c adc9 e43d 9f01 9f3b d14b 8cbc
00000200: 1e4f c5bc 077f 89bd c977 663d 7501 49bd
00000210: ae24 ebbd 79d5 1e3d f07e bd3c 0956 fd3b
00000220: 0b0d 8bbd e2bc 643c ba8c a33c f539 03bd
00000230: 4b19 90bb 15fe 183c e728 8b3c 616d 96bc
00000240: c31a 06bd 28c2 85bc de39 87bd 1eb9 613d
00000250: f815 f43c eacf d7bc b243 1bbd 5b33 a93b
00000260: 0dbb 83bd 7837 f23c 2ea8 e83d 5ffe 043e
00000270: 8bda 7f3d fec9 243e 68e1 cb3d 76fb b43d
00000280: 8d3a 163e 12b3 983d 355a a6bd 6696 243e
00000290: 9b4b a23d 20b5 1fbd 120c 2d3e 2db2 e73d
000002a0: e0e8 05bd cd18 4a3c 75e1 b4bc c157 01bd
000002b0: b9cb cbbb 2208 29bd 0f26 e9bc 26c4 433c
000002c0: 7fa7 fe3b b6b3 99bd 4a9c 06bd 228c 7b3b
000002d0: 1528 a4bd 4a6f c3bc 0a01 32bd cf31 a53c
000002e0: 4dec 3abd bca8 8cbd 1431 203d 8750 bdbd
000002f0: dbb8 9c3b c275 e23c 38ef 003d a550 7fbc
00000300: 1eef 77bb a6c0 133c 3d7e d03c 3538 16bd
00000310: 634a e33c 7228 09bc 3a32 d73c c101 86bc
00000320: ca49 983d 5eb6 33bc 248e 32bd 88fe b33b
00000330: 0485 f8bc 8f62 4c3d a299 00bd 02ea a93d
00000340: abb2 a03d 5621 bc3d 24c6 3c3d b9f8 6d3c
00000350: f95b 33bc 7969 473d 396b 3f3d b43d fc3b
00000360: 7297 8bbd d102 3bbd 9eea d8bc a67f 363d
00000370: d0f3 cd3d 6392 363d 3570 32bd 341f b5bc
00000380: 9a67 6abd 798f e8bc ee6c ad3d b409 a03c
00000390: a303 7fbc 20a3 833d 473b 853d c041 ddbc
000003a0: f2ec b3bc 557d d2bc 8849 8e3d 3645 013e
000003b0: 1f4b 033e f461 133e 7708 c03d 2a27 143e
000003c0: e1e8 fd3d 5495 f03d 2261 323e 1428 de3d
000003d0: db91 0f3e 64c4 cf3d 76c9 223e bb64 0f3e
000003e0: b82f a03d d8ad 073e c1b3 553d 8533 e33d
000003f0: 67e5 703d 3579 4f3d c0d1 7a3d 06cc 013e

blocks.1.block.0.weight f4 [32, 32, 3, 3]
0.02635798 -0.006770456 -0.023338286 -0.04413024 -0.0059867767 -0.03863702 0.027071804 0.009195983
-0.002948738 -0.0121217845 0.037233837 -0.04252903 -0.015328564 0.04679869 -0.005857568 0.016628778
0.059941553 -0.021870408 -0.04847721 -0.05453262 0.04538408 -0.031238073 -0.01488872 -0.030597338
0.050883263 0.108136 0.06275892 -0.071626864 -0.00764194 -0.053946886 -0.10350032 -0.00414436
-0.063622564 -0.044897337 -0.04963943 -0.007316955 0.033582453 -0.0334231 0.05232278 0.11705757
0.024194112 0.020740563 0.0185339 0.0057769497 -0.08712407 0.095689 0.017658213 0.08417661
-0.0070465854 -0.039670914 0.03309787 0.032767855 0.07719272 0.09788368 -0.003381921 -0.04653411
-0.01854129 -0.05513651 -0.03873274 -0.036127206 -0.027117817 -0.010715139 -0.015232396 0.044085722
0.069179825 -0.029637925 -0.040561125 0.030423786 0.045424566 -0.059443943 -0.052650724 -0.022089446
-0.02339268 -0.04889992 -0.05050087 0.0041402765 -0.029246712 -0.06925335 0.02840978 0.023605477
-0.030145034 -0.06800223 0.0028609498 -0.009396146 -0.04658301 -0.009616435 0.04270128 0.02328974
0.058659893 0.027133727 -0.036614165 -0.14415292 -0.059131674 -0.13802509 -0.13738261 -0.11146768
-0.11601093 -0.06816955 -0.14553986 -0.07773223 -0.04356995 -0.07036997 -0.11477109 -0.1407902
-0.06337446 0.055719268 -0.008601375 -0.00052636856 -0.07998114 -0.13518661 0.012765707 -0.0742816
-0.069164224 -0.0009407157 -0.1021897 -0.12622212 -0.09137765 -0.065862186 0.070294224 -0.05158575
0.008810263 0.038406417 0.040761866 -0.0011708558 -0.05814492 0.00867234 0.059492163 0.111310385
0.0776015 0.04138653 0.123729885 0.0959695 0.039498944 0.08309852 0.06774777 0.033309218
-0.032772735 0.034380417 -0.08470255 -0.075184084 0.023880072 -0.031152546 -0.08603612 0.03398334
-0.02185613 0.11727772 -0.00580793 0.016886512 0.11561133 0.029723305 0.025362633 0.0038087189
-0.014201989 -0.017262716 -0.0560919 0.05875733 0.026899796 0.033070263 0.022904083 0.07279711
0.08866266 0.009937332 0.038117442 -0.031140966 0.047496155 -0.026105806 0.027796207 0.028426025
0.012577378 0.02529883 0.034563895 0.03935559 0.054205816 0.009565947 -0.036815982 -0.057764933
0.026130062 -0.07628246 -0.035817362 0.0033229273 0.058778644 -0.012093197 0.10642924 0.0804256
0.05035272 0.017593205 0.09660206 0.094437934 0.009861651 -0.10513709 -0.0643298 -0.0112218065
-0.04300175 -0.012032209 -0.01725243 -0.08997364 -0.025660539 -0.0219574 -0.020705845 0.031159207
0.03146073 0.055236124 -0.009486864 -0.047271 0.045606002 0.1563156 0.037321538 -0.076268196
-0.0794866 -0.015224077 -0.009689636 -0.061295 -0.11834029 -0.094077736 -0.09466813 -0.10560512
-0.064604566 0.02442631 -0.017174397 -0.009426747 -0.021128211 0.025714837 0.02835845 0.058567397
0.110560045 0.00090356776 -0.07460702 -0.06425323 -0.07392021 -0.09274461 -0.028817624 0.011711128
0.02780259 -0.012782862 -0.16120315 -0.27978984 -0.19376309 -0.16012424 -0.19726816 -0.1835323
-0.22198144 -0.183882 -0.16064121 -0.0065410314 0.06497033 0.0460761 0.05996831 0.0069544553
0.05501055 -0.06673063 -0.024058193 0.06259491 -0.0039674374 -0.013556865 0.01581784 -0.032966085
00000000: b1ec d73c b4da ddbb ef2f bfbc e9c1 34bd
00000010: b92c c4bb da41 1ebd b0c5 dd3c c0aa 163c
00000020: 9d3f 41bb 739a 46bc 8282 183d ec32 2ebd
00000030: a824 7bbc fcaf 3f3d d7f0 bfbb 1339 883c
00000040: 4685 753d 9229 b3bc 0a90 46bd 995d 5fbd
00000050: a8e4 393d fde6 ffbc d1ef 73bc 45a7 fabc
00000060: f86a 503d 6876 dd3d c087 803d 1bb1 92bd
00000070: 3d69 fabb 69f7 5cbd faf7 d3bd 69cd 87bb
00000080: 8c4c 82bd 45e6 37bd b752 4bbd 11c3 efbb
00000090: c18d 093d a9e6 08bd 6950 563d e1bb ef3d
000000a0: bb32 c63c 1de8 a93c 68d4 973c 914c bd3b
000000b0: 1b6e b2bd 98f8 c33d f5a7 903c c964 ac3d
000000c0: 0be7 e6bb f87d 22bd a291 073d 9637 063d
000000d0: 3717 9e3d 3d77 c83d 38a3 5dbb 8d9a 3ebd
000000e0: e7e3 97bc d2d6 61bd 39a6 1ebd 1ffa 13bd
000000f0: 2f26 debc 8d8e 2fbc 4d91 79bc 3b93 343d
00000100: 27ae 8d3d 3ccb f2bc 6c23 26bd 4e3b f93c
00000110: 1c0f 3a3d 7e7b 73bd 49a8 57bd edf4 b4bc
00000120: 01a2 bfbc 484b 48bd 00da 4ebd 28ab 873b
00000130: cd96 efbc b3d4 8dbd a0bb e83c 4660 c13c
00000140: b8f2 f6bc c144 8bbd c67e 3b3b 4bf2 19bc
00000150: d4cd 3ebd 408e 1dbc 8ae7 2e3d 20ca be3c
00000160: 5b45 703d 8d47 de3c bcf8 15bd d39c 13be
00000170: 0e34 72bd 7356 0dbe 07ae 0cbe 2b49 e4bd
00000180: 2397 edbd 7a9c 8bbd 6708 15be 1332 9fbd
00000190: 6776 32bd 211e 90bd 1b0d ebbd 4e2b 10be
000001a0: 78ca 81bd e339 643d c8ec 0cbc fffb 09ba
000001b0: 27cd a3bd 5c6e 0abe 4227 513c f420 98bd
000001c0: f9a5 8dbd 5d9a 76ba d548 d1bd 5f40 01be
000001d0: 3524 bbbd c1e2 86bd 6bf6 8f3d 944b 53bd
000001e0: ec58 103c 0c50 1d3d eaf5 263d 6777 99ba
000001f0: 5e29 6ebd 6e16 0e3c 0eae 733d b3f6 e33d
00000200: 89ed 9e3d ec84 293d 1866 fd3d a88b c43d
00000210: a5c9 213d 8f2f aa3d 58bf 8a3d 3f6f 083d
00000220: b43c 06bd 7bd2 0c3d 8878 adbd 1dfa 99bd
00000230: 24a0 c33c a033 ffbc b533 b0bd 1d32 0b3d
00000240: a00b b3bc 4d2f f03d 7350 bebb 9555 8a3c
00000250: a2c5 ec3d 4a7e f33c 4cc5 cf3c b39b 793b
00000260: 76af 68bc 8a6a 8dbc 9fc0 65bd 87ab 703d
00000270: f65c dc3c af74 073d 58a1 bb3c a716 953d
00000280: c594 b53d 31d0 223c 0921 1c3d 571b ffbc
00000290: 548b 423d d8db d5bc dfb4 e33c b2dd e83c
000002a0: 5911 4e3c 7e3f cf3c df92 0d3d 5433 213d
000002b0: eb06 5e3d 7dba 1c3c 5bcc 16bd ec9a 6cbd
000002c0: b60e d63c fa39 9cbd 3ab5 12bd 78c5 593b
000002d0: e0c1 703d 8b22 46bc 93f7 d93d 2db6 a43d
000002e0: a73e 4e3d a01f 903c 4dd7 c53d ad68 c13d
000002f0: c392 213c 1d52 d7bd 58bf 83bd abdb 37bc
00000300: 9a22 30bd be22 45bc f854 8dbc 1a44 b8bd
00000310: 0d36 d2bc 01e0 b3bc 4e9f a9bc 9841 ff3c
00000320: f7dc 003d 463f 623d cb6e 1bbc 3c9f 41bd
00000330: 5ccd 3a3d 3211 203e 78de 183d 8032 9cbd
00000340: dfc9 a2bd 686e 79bc 47c1 1ebc 7710 7bbd
00000350: 655c f2bd d4ab c0bd 5de1 c1bd 7f47 d8bd
00000360: 664f 84bd af19 c83c 52b1 8cbc a572 1abc
00000370: 1215 adbc eca7 d23c fb4f e83c 5ee4 6f3d
00000380: 4e6d e23d 68dd 6c3a 91cb 98bd 3397 83bd
00000390: 7b63 97bd e3f0 bdbd f012 ecbc 08e0 3f3c
000003a0: 42c2 e33c 366f 51bc 7012 25be 9d40 8fbe
000003b0: d569 46be 9cf7 23be aa00 4abe e4ef 3bbe
000003c0: 1a4f 63be 904b 3cbe 217f 24be 2656 d6bb
000003d0: 2a0f 853d 4bba 3c3d 55a1 753d 33e2 e33b
000003e0: be52 613d 12aa 88bd b015 c5bc c331 803d
000003f0: 4701 82bb 9d1d 5ebc 6a94 813c 7207 07bd

blocks.1.block.3.weight f4 [32, 32, 3, 3]
0.059157368 0.0775359 0.10124363 0.059847556 0.072271794 0.07354054 0.08239441 0.069830164
0.016619282 0.04276924 0.018878847 -0.03225325 0.02570353 -0.047177974 -0.018179486 -0.005047682
-0.03750513 0.008444946 -0.02517884 -0.07540396 -0.08563596 -0.119923025 -0.060967088 -0.08957815
-0.053915087 -0.075821914 -0.05251557 -0.08160064 -0.13729078 -0.11660844 -0.02899285 -0.048037164
-0.069698006 -0.035296235 -0.054780576 -0.10533639 0.07698243 0.032141592 0.016155422 0.07967444
0.03653999 0.0489648 0.059774566 0.09006746 0.03973582 0.06314698 -0.0071714036 0.09430035
0.05489167 0.057669085 0.08316666 0.07349378 -0.0067534694 -0.032242224 -0.083022006 -0.064988755
-0.06724187 -0.12754388 -0.12399158 -0.15199572 -0.12532447 -0.1498829 -0.12980615 -0.013993746
-0.08851024 0.018557606 -0.06442971 -0.0760112 -0.040277384 0.023305375 0.012662047 0.009276735
0.0036130962 -0.04483828 -0.064272285 -0.009311311 0.008803092 -0.001649553 -0.03148075 -0.06298882
-0.019575914 0.02510858 0.025029473 -0.033402942 0.023916906 0.010608834 0.065894574 0.10900847
0.059831206 0.05188864 0.018237038 0.042085066 -0.003995096 0.0093326 -0.006475547 0.035797235
0.001049537 -0.031288862 0.050263282 -0.013786877 0.0059127677 0.018036656 0.018493522 0.012148626
0.035700925 0.0398574 -0.046357885 -0.06139552 -0.04074373 -0.024091348 0.021436727 -0.013393283
0.002156598 -0.092532285 0.04459324 -0.034718607 0.018626666 0.023302622 0.0072161583 0.08991617
0.0047839223 -0.017225293 0.076693624 0.03387907 0.028528553 -0.011459362 0.027184488 0.05330511
0.031079005 -0.0003755069 0.06712333 0.106168635 0.019637812 0.0562499 0.001157271 -0.04072121
-0.018131003 -0.07432489 0.014606577 -0.087793306 -0.09193756 -0.06933174 -0.054684836 -0.13928476
-0.10831672 -0.08820544 -0.010681517 -0.11593681 -0.13351311 -0.10057498 -0.1079054 -0.107659094
-0.10864086 0.0052387994 -0.027483022 -0.019970136 0.060953878 0.052874245 -0.015008983 0.08683943
0.026734278 0.06691289 -0.011386361 0.042271715 0.05710966 0.030225651 0.045955393 0.020570736
-0.013066137 0.00203735 0.015776124 -0.015709026 0.042680595 0.11490278 -0.012090887 0.028369136
0.08585719 0.11007004 0.105588555 0.034036506 0.025982264 -0.0054876413 0.07000656 0.019481443
0.0074029937 0.024572134 -0.019168425 0.013423137 0.025165053 -0.012874703 0.057743177 0.06101912
0.04103876 0.012369842 0.056407988 0.059921686 0.086455725 0.10642833 0.0048447633 0.025906973
-0.03267448 0.02176496 0.02225454 0.026019122 -0.053627044 0.042858385 0.043106966 0.026680283
-0.020922232 -0.009622382 0.033468176 -0.07199311 -0.06207845 -0.0058187465 -0.06489439 -0.045262028
-0.097354434 -0.06544362 -0.048662104 -0.05191206 -0.14794922 -0.106757194 -0.08131643 -0.15311365
-0.118037015 -0.1296706 -0.06774095 -0.16345567 -0.100347094 -0.15624517 -0.089953646 -0.118032984
-0.19184035 -0.16148941 -0.13135557 -0.09097611 -0.12941848 -0.11708589 -0.15253767 -0.070579685
-0.12167442 -0.17834835 -0.09396104 0.0833268 0.066681966 0.045305334 0.10996651 0.0069138985
0.0010805194 0.028239526 0.07427907 0.0063492116 0.004277008 -0.0034587316 -0.032109365 0.04813396
00000000: ff4e 723d 24cb 9e3d d258 cf3d b622 753d
00000010: 3c03 943d 6c9c 963d 67be a83d 1e03 8f3d
00000020: 2925 883c cc2e 2f3d d0a7 9a3c fc1b 04bd
00000030: 3690 d23c b13d 41bd 25ed 94bc 0767 a5bb
00000040: fb9e 19bd ac5c 0a3c db43 cebc 646d 9abd
00000050: e861 afbd 349a f5bd a0b8 79bd c074 b7bd
00000060: 11d6 5cbd 8548 9bbd 911a 57bd 3d1e a7bd
00000070: f495 0cbe 68d0 eebd 6a82 edbc 9ec2 44bd
00000080: d4bd 8ebd c992 10bd 9961 60bd 9bba d7bd
00000090: f7a8 9d3d e7a6 033d 6058 843c 5a2c a33d
000000a0: f5aa 153d 508f 483d 2dd6 743d 4a75 b83d
000000b0: 07c2 223d 3453 813d 18fe eabb 8b20 c13d
000000c0: 16d6 603d 6b36 6c3d 4853 aa3d e883 963d
000000d0: 354c ddbb 6c10 04bd 7107 aabd d318 85bd
000000e0: 1bb6 89bd dd9a 02be 4cef fdbd c4a4 1bbe
000000f0: 0f55 00be e77a 19be e7eb 04be 0646 65bc
00000100: db44 b5bd 1f06 983c b9f3 83bd c3ab 9bbd
00000110: e6f9 24bd eaea be3c 7974 4f3c 72fd 173c
00000120: b2c9 6c3b 58a8 37bd 30a1 83bd 788e 18bc
00000130: d83a 103c d035 d8ba f5f1 00bd 4800 81bd
00000140: ab5d a0bc 82b0 cd3c 9c0a cd3c 86d1 08bd
00000150: 63ed c33c add0 2d3c bcf3 863d d53f df3d
00000160: 9111 753d 2f89 543d d765 953c 6461 2c3d
00000170: 4be9 82bb c3e7 183c d330 d4bb 1fa0 123d
00000180: 9e90 893a c028 00bd dfe0 4d3d 5ae2 61bc
00000190: e4bf c13b 9cc1 933c ba7f 973c 080b 473c
000001a0: 223b 123d 8341 233d c4e1 3dbd de79 7bbd
000001b0: e6e2 26bd 385b c5bc 139c af3c 806f 5bbc
000001c0: b655 0d3b 9181 bdbd 67a7 363d 1935 0ebd
000001d0: f396 983c 24e5 be3c 8675 ec3b f825 b83d
000001e0: 73c2 9c3b 0f1c 8dbc 8c11 9d3d c8c4 0a3d
000001f0: b6b4 e93c 0cc0 3bbc 01b2 de3c 7656 5a3d
00000200: 6699 fe3c afdf c4b9 f577 893d f16e d93d
00000210: 7adf a03c 4c66 663d 92af 973a 49cb 26bd
00000220: 7887 94bc a637 98bd 6d50 6f3c facc b3bd
00000230: c249 bcbd cdfd 8dbd 35fd 5fbd aaa0 0ebe
00000240: 28d5 ddbd 0ea5 b4bd 8801 2fbc 4770 edbd
00000250: a9b7 08be 41fa cdbd 82fd dcbd 5f7c dcbd
00000260: 197f debd 3caa ab3b 1324 e1bc 6998 a3bc
00000270: c6aa 793d aa92 583d 3de8 75bc dfd8 b13d
00000280: d801 db3c a009 893d dc8d 3abc 1b25 2d3d
00000290: d2eb 693d c99b f73c b93b 3c3d f683 a83c
000002a0: 5a13 56bc 1085 053b ee3c 813c 37b0 80bc
000002b0: d9d1 2e3d 2652 eb3d db18 46bc 6466 e83c
000002c0: e5d5 af3d 676c e13d d03e d83d dd69 0b3d
000002d0: c2d8 d43c acd1 b3bb 995f 8f3d 8c97 9f3c
000002e0: d094 f23b 804b c93c 1a07 9dbc b8ec 5b3c
000002f0: f126 ce3c 6bf0 52bc 1c84 6c3d 2fef 793d
00000300: 4218 283d e1aa 4a3c 100c 673d 7170 753d
00000310: b30f b13d 19f7 d93d d2c0 9e3b dc3a d43c
00000320: add5 05bd 6e4c b23c 274f b63c 0e26 d53c
00000330: 08a8 5bbd 468c 2f3d ee90 303d 9c90 da3c
00000340: 1a65 abbc 32a7 1dbc ed15 093d 2071 93bd
00000350: f945 7ebd 2fab bebb 5ae7 84bd ad64 39bd
00000360: c361 c7bd 4e07 86bd ea51 47bd bda1 54bd
00000370: 0080 17be 84a3 dabd 3a89 a6bd d3c9 1cbe
00000380: 64bd f1bd 5fc8 04be c4bb 8abd ec60 27be
00000390: c782 cdbd bcfe 1fbe 9e39 b8bd 47bb f1bd
000003a0: cc71 44be 7b5d 25be 1382 06be af51 babd
000003b0: 4786 04be baca efbd d632 1cbe 158c 90bd
000003c0: 7030 f9bd f3a0 36be a56e c0bd 3ea7 aa3d
000003d0: 8e90 883d 1692 393d 1f36 e13d fc8d e23b
000003e0: 37a0 8d3a 9456 e73c a01f 983d 0c0d d03b
000003f0: 2526 8c3b e3ab 62bb 1c85 03bd 1e28 453d

blocks.2.block.0.weight f4 [32, 32, 3, 3]
0.16931249 0.1141411 0.12519546 0.10936462 0.09276135 0.07312196 0.13937947 0.04924211
0.15579854 -0.040698938 -0.055460956 0.015355322 -0.028151194 0.031032834 0.008852898 0.023671987
0.036966622 0.0057483665 0.042531997 -0.10268101 -0.29516992 0.031024562 -0.099444345 -0.29609543
-0.052398372 -0.17157695 -0.24924392 0.03109507 0.046629567 0.08851215 -0.0010855213 0.026396414
0.07636719 -0.0069630733 0.04484871 0.042489305 -0.05887232 -0.041709114 -0.06710564 -0.02304993
-0.03487464 0.037475556 0.046173755 0.037698675 -0.047184326 -0.043594766 -0.2021525 -0.06258152
-0.105636984 -0.18983072 -0.11448358 -0.09496795 -0.12764654 -0.027784089 0.0011137548 -0.035683785
0.047948427 0.045149703 -0.021395616 0.037813265 -0.01982967 0.045374352 0.008770965 0.039381545
-0.01953177 0.04207848 -0.08826064 -0.082793064 0.019683624 -0.08205013 -0.0055569103 0.054980934
-0.07194159 -0.014292894 0.07090018 -0.025175635 0.059290815 0.07707568 0.015857479 0.02572542
0.042158302 0.014186231 0.041900232 0.07702172 -0.009466868 0.10651864 0.18157217 -0.025178142
0.12221302 0.17901745 -0.046527423 0.038617022 0.047782633 -0.012112662 -0.04148008 0.02841668
0.02146323 -0.0075988513 0.021832123 0.1796877 0.14747839 0.11244959 0.14873773 0.25172767
0.17387657 0.25534025 0.29953936 0.1441204 0.15553266 0.18210115 0.121195965 0.093838274
0.06510053 0.12066082 0.018521726 0.098197326 0.15799016 -0.024038676 -0.16484362 -0.210135
-0.009120332 -0.17643847 -0.10655731 -0.045940977 -0.025983745 0.04253969 -0.038329042 0.0028612765
0.031981245 0.058431663 -0.030268481 0.017604284 0.029577773 0.0027393778 0.034880705 0.0898744
0.007912706 -0.03749597 -0.08511489 -0.06218066 0.014541471 -0.037686065 -0.02816519 0.10867395
-0.17987123 -0.045296546 -0.040270355 -0.06677729 -0.0366089 -0.03398007 -0.10948482 -0.0031256077
0.051730808 0.04424609 0.033193115 -0.1236148 0.026792862 -0.040723756 -0.17040348 0.002779936
-0.09303453 -0.13765033 -0.061681364 0.0026926459 0.04501962 -0.05237178 -0.069258645 0.011070212
-0.0016254992 0.035981085 -0.024217732 0.026823178 0.04701743 0.029122218 -0.0869915 0.030273344
0.040150877 -0.059957948 0.03780629 0.010939399 -0.013326207 0.04709134 0.042332646 -0.025684714
0.054438308 -0.0064028013 0.068591535 -0.003824465 0.03558189 -0.053219877 -0.022445336 0.047602586
0.0052439286 0.01340034 0.022223119 -0.006410425 -0.045221638 0.0008787569 0.03220771 0.09283963
0.13128236 0.08938028 0.062076706 0.020817248 0.0916241 0.053625304 0.029334916 -0.092962176
-0.10788936 -0.057528883 -0.13374878 -0.09891719 -0.08001933 -0.13672702 -0.086309984 -0.0015012169
-0.1810751 -0.24406642 -0.23417911 -0.17924492 -0.27619866 -0.25895762 -0.24998076 -0.17592159
-0.15381704 -0.051180292 -0.017652584 0.050537284 -0.00612216 0.043211166 0.09331561 -0.007988147
0.057385318 0.08849856 0.023432668 0.04860708 0.1481257 0.038571287 0.010154541 0.035797235
0.087082 0.02593077 0.09910339 0.06793587 0.07654125 0.1434289 0.19516213 0.13233946
0.15733638 0.18323398 0.07671675 0.065943435 0.002355245 0.01888271 0.025464492 -0.037629828
00000000: 4160 2d3e cfc2 e93d 3d33 003e 8ffa df3d
00000010: aaf9 bd3d f7c0 953d 7eb9 0e3e 18b2 493d
00000020: a789 1f3e eeb3 26bd 072b 63bd e394 7b3c
00000030: 559d e6bc 9238 fe3c bf0b 113c c1eb c13c
00000040: 506a 173d cb5c bc3b 0836 2e3d 6c4a d2bd
00000050: 8320 97be 3927 fe3c 7aa9 cbbd d299 97be
00000060: ad9f 56bd deb1 2fbe cc39 7fbe 17bb fe3c
00000070: a5fe 3e3d dc45 b53d 0d48 8eba 4b3d d83c
00000080: 6766 9c3d 7e2a e4bb 48b3 373d 4409 2e3d
00000090: 1a24 71bd 2dd7 2abd af6e 89bd 35d3 bcbc
000000a0: b6d8 0ebd f87f 193d b120 3d3d ed69 1a3d
000000b0: 5a44 41bd 6d90 32bd 1101 4fbe bd2a 80bd
000000c0: 3458 d8bd fc62 42be 5e76 eabd 8e7e c2bd
000000d0: c6b5 02be 759b e3bc 69fb 913a 2929 12bd
000000e0: 9265 443d e5ee 383d dc45 afbc 15e2 1a3d
000000f0: d571 a2bc 75da 393d 18b4 0f3c 8b4e 213d
00000100: 1701 a0bc 7c5a 2c3d ffc1 b4bd 698f a9bd
00000110: 8d3f a13c e609 a8bd be16 b6bb b033 613d
00000120: 1d56 93bd be2c 6abc 1d34 913d 223d cebc
00000130: edda 723d dbd9 9d3d 8be7 813c 1ebe d23c
00000140: 2fae 2c3d 5e6d 683c 949f 2b3d 90bd 9d3d
00000150: ec1a 1bbc 7226 da3d 0eee 393e 6442 cebc
00000160: d24a fa3d 5a50 373e 8a93 3ebd e22c 1e3d
00000170: b9b7 433d 3074 46bc 04e7 29bd 19ca e83c
00000180: a8d3 af3c c9ff f8bb 48d9 b23c 0d00 383e
00000190: 9304 173e f84b e63d b44e 183e 73e2 803e
000001a0: b30c 323e f5bb 823e 395d 993e 4c94 133e
000001b0: f443 1f3e b978 3a3e 9735 f83d 482e c03d
000001c0: 6d53 853d 051d f73d e0ba 973c ae1b c93d
000001d0: 2cc8 213e c2ec c4bc c4cc 28be a12d 57be
000001e0: 726d 15bc 49ac 34be b83a dabd 9b2c 3cbd
000001f0: dddb d4bc 193e 2e3d eafe 1cbd 4184 3b3b
00000200: c4fe 023d 0a56 6f3d 9bf5 f7bc dc36 903c
00000210: 164d f23c 2287 333b 12df 0e3d 1210 b83d
00000220: 4ba4 013c 6095 19bd b750 aebd 26b1 7ebd
00000230: 5a3f 6e3c b45c 1abd afba e6bc 7390 de3d
00000240: 2a30 38be df88 39bd 87f2 24bd 88c2 88bd
00000250: 37f3 15bd b02e 0bbd 9439 e0bd ffd6 4cbb
00000260: afe3 533d 633b 353d 81f5 073d c229 fdbd
00000270: b47c db3c f4cd 26bd 407e 2ebe 962f 363b
00000280: e388 bebd 35f4 0cbe 99a5 7cbd 1a77 303b
00000290: 7e66 383d cb83 56bd 7ad7 8dbd d65f 353c
000002a0: b40e d5ba e760 133d 4464 c6bc 48bc db3c
000002b0: 5995 403d b891 ee3c 9928 b2bd ceff f73c
000002c0: 3f75 243d 7796 75bd c5da 1a3d 2a3b 333c
000002d0: 2a56 5abc d9e2 403d ff64 2d3d c068 d2bc
000002e0: b4fa 5e3d 97ce d1bb b879 8c3d e0a3 7abb
000002f0: 51be 113d 16fd 59bd 48df b7bc eefa 423d
00000300: 43d5 ab3b 1a8d 5b3c 420d b63c 8b0e d2bb
00000310: 533a 39bd 615c 663a 3bec 033d b422 be3d
00000320: e26e 063e 020d b73d 2544 7e3d ef88 aa3c
00000330: 6ba5 bb3d 35a6 5b3d c74f f03c f462 bebd
00000340: 19f5 dcbd 68a3 6bbd 71f5 08be 1995 cabd
00000350: 2de1 a3bd 2b02 0cbe 4ac3 b0bd 7bc4 c4ba
00000360: c06b 39be 8cec 79be a6cc 6fbe fb8b 37be
00000370: e969 8dbe 1896 84be f5fa 7fbe ca24 34be
00000380: 3782 1dbe 6da2 51bd 279c 90bc 2f00 4f3d
00000390: 669c c8bb 31fe 303d 411c bf3d b8e0 02bc
000003a0: de0c 6b3d bc3e b53d def5 bf3c 3818 473d
000003b0: 43ae 173e edfc 1d3d 3b5f 263c 1fa0 123d
000003c0: 0c58 b23d c46c d43c b8f6 ca3d f621 8b3d
000003d0: a9c1 9c3d 07df 123e 95d8 473e ff83 073e
000003e0: ca1c 213e b0a1 3b3e ac1d 9d3d 5a0d 873d
000003f0: 745a 1a3b eaaf 9a3c e99a d03c bc21 1abd

blocks.2.block.3.weight f4 [32, 32, 3, 3]
0.012493449 -0.002735333 0.062645674 0.000603437 0.03817566 0.051790934 0.07235464 0.021873478
0.052575298 0.06834254 0.016713992 0.06670693 0.0688346 -0.024028873 0.03393916 0.016777487
0.048936196 0.022899967 -0.046908252 0.005906455 -0.051758654 -0.011482003 0.045113705 -0.0076810964
-0.062170673 0.023569532 0.0027389955 0.0044459538 -0.031054651 -0.10203134 -0.0024195 -0.019718932
-0.12481921 -0.08585713 -0.070093974 -0.034454115 -0.018315554 -0.05525455 -0.06518608 -0.07124726
-0.07627991 -0.073835514 8.511327e-05 -0.14414369 -0.12573518 -0.03825114 0.009098008 -0.016719934
-0.06675056 -0.04529615 -0.0025480422 0.021087693 0.011098153 0.03174112 0.017483402 0.0011292008
0.070457995 0.010887097 0.03957097 0.013586256 0.003424592 0.057967186 0.03809693 -0.029922316
0.011832648 -0.12145224 0.012404746 -0.027149966 -0.0035300674 0.01317955 -0.04050402 -0.027476192
-0.016184386 -0.0009394247 0.052623764 -0.0038501997 0.03049208 -0.008048421 -0.024435973 -0.010158828
-0.026969194 -0.011402044 -0.13458231 -0.12036276 0.008967383 -0.039310757 -0.07918279 -0.07944838
-0.06664919 -0.13450342 0.028098004 -0.059359334 0.015246621 0.067725934 -0.012806084 -0.030177737
0.013367456 0.010818353 0.0018430001 0.04229978 0.10835117 0.03702422 0.03944556 0.16601653
0.038110696 0.12274427 0.1701317 0.104914494 -0.0709471 -0.11379035 -0.12834269 -0.13857172
-0.12032061 -0.069989555 -0.09976133 -0.10868686 -0.117904805 -0.042193186 -0.069305174 -0.026272664
0.04228796 -0.033378407 -0.019052165 -0.021767069 -0.0066649998 0.019799383 -0.015222397 -0.0564253
0.0061685494 -0.05526115 -0.106331214 -0.07953243 0.0050927927 -0.056679707 -0.08125543 -0.021987349
-0.01826189 0.051408634 0.0012764913 0.06286449 0.06114253 0.089034475 0.10333621 0.0759386
0.031346682 0.05669474 0.0031970034 0.09733946 -0.004822684 -0.012589025 0.086807884 0.0066461856
0.06876303 0.079235636 0.007168854 0.04466133 0.049347904 -0.049090512 0.027889097 0.03608385
0.0756191 -0.009777099 -0.024267912 -0.038761333 0.024038207 0.05932158 0.016919937 -0.0044313134
0.030347165 0.0947712 -0.038271334 -0.019408055 0.058101676 0.09037653 0.052669752 0.10499372
0.0021774767 -0.012176899 0.08802063 0.00042799587 -0.033128973 -0.05518945 -0.018162757 -0.017006299
-0.051803783 0.042054437 0.01589556 0.013017142 -0.040485132 -0.12399276 -0.055695668 -0.07632525
-0.050402794 -0.104063615 -0.06038432 -0.10513848 -0.05463709 -0.10021521 -0.029701166 0.033565745
0.053570364 -0.0108555155 0.00781898 -0.04912935 -0.013257432 -0.041218422 -0.052316695 -0.012780789
0.064979754 0.037283413 0.039051622 0.03639498 0.10456855 -0.031287674 -0.006715707 0.0827084
0.009745558 -0.020922244 0.04996258 0.10859542 0.0062553827 0.051092364 0.13239218 0.12164559
0.040255133 0.054788053 0.042302012 0.0028771253 -0.016435886 0.018004786 0.021369925 0.0843558
0.10798541 0.09687673 -0.050812867 -0.05589006 -0.03548263 -0.047165673 -0.011723821 -0.02374572
-0.05032428 -0.07522613 0.009968349 -0.029316131 0.048668113 0.02973663 0.09719339 0.09274497
0.09116751 0.08194635 0.0055225184 0.098675996 0.000946146 -0.011378281 0.047209457 0.05480549
00000000: 53b1 4c3c 4643 33bb 604c 803d f92f 1e3a
00000010: 155e 1c3d bb22 543d ab2e 943d 0230 b33c
00000020: 3259 573d 2cf7 8b3d c8eb 883c a59d 883d
00000030: 28f9 8c3d 33d8 c4bc ca03 0b3d f170 893c
00000040: 5271 483d b698 bb3c de22 40bd f08a c13b
00000050: e200 54bd 031f 3cbc 26c9 383d b5b1 fbbb
00000060: ada6 7ebd e414 c13c b880 333b 5daf 913b
00000070: 5366 febc cff5 d0bd 7990 1ebb 9989 a1bc
00000080: 37a1 ffbd ddd5 afbd 6e8d 8fbd c21f 0dbd
00000090: 800a 96bc 9852 62bd 4880 85bd 15ea 91bd
000000a0: a438 9cbd 1337 97bd d77e b238 679a 13be
000000b0: b9c0 00be 3aad 1cbd d00f 153c 3ef8 88bc
000000c0: 85b4 88bd 7588 39bd 0efd 26bb 19c0 ac3c
000000d0: 07d5 353c fa02 023d 5a39 8f3c b101 943a
000000e0: 484c 903d cb5f 323c 2b15 223d e398 5e3c
000000f0: 1f6f 603b 006f 6d3d 870b 1c3d a51f f5bc
00000100: b9dd 413c f4bb f8bd 473d 4b3c 9b69 debc
00000110: b458 67bb 0aef 573c 8be7 25bd c015 e1bc
00000120: 1e95 84bc b943 76ba 048c 573d a253 7cbb
00000130: 87ca f93c 86dd 03bc f32d c8bc 3771 26bc
00000140: 80ee dcbc a4cf 3abc f2cf 09be c080 f6bd
00000150: eeeb 123c 5104 21bd 962a a2bd d5b5 a2bd
00000160: 5f7f 88bd 44bb 09be c92d e63c c622 73bd
00000170: f7cc 793c e5b3 8a3d 9cd0 51bc 4d37 f7bc
00000180: 2d03 5b3c 763f 313c d290 f13a 8942 2d3d
00000190: 38e7 dd3d b5a6 173d ab91 213d 3d00 2a3e
000001a0: f619 1c3d 5961 fb3d 0137 2e3e 69dd d63d
000001b0: b74c 91bd ea0a e9bd 446c 03be bfe5 0dbe
000001c0: a76a f6bd af56 8fbd ab4f ccbd 3797 debd
000001d0: 1378 f1bd c3d2 2cbd dfef 8dbd c539 d7bc
000001e0: 2436 2d3d ccb7 08bd 4913 9cbc da50 b2bc
000001f0: 1266 dabb 5132 a23c 5c67 79bc 371e 67bd
00000200: 8b21 ca3b 8459 62bd 2ec4 d9bd e6e1 a2bd
00000210: 71e1 a63b fb28 68bd 3f69 a6bd d01e b4bc
00000220: f699 95bc dc91 523d f14f a73a 19bf 803d
00000230: 9770 7a3d b557 b63d efa1 d33d b285 9b3d
00000240: 6165 003d be38 683d d184 513b e959 c73d
00000250: 9b07 9ebb 3342 4ebc 55c8 b13d 3fc8 d93b
00000260: a2d3 8c3d 4b46 a23d b5e8 ea3b ccee 363d
00000270: 0721 4a3d 2213 49bd ad77 e43c a9cc 133d
00000280: 30de 9a3d 2030 20bc 80cd c6bc 34c4 1ebd
00000290: c6eb c43c 2ffb 723d ae9b 8a3c 8d34 91bb
000002a0: 9e9a f83c 6717 c23d 67c2 1cbd a4fd 9ebc
000002b0: 06fc 6d3d 5517 b93d 3dbc 573d f306 d73d
000002c0: ffb3 0e3b 9e81 47bc 2944 b43d a264 e039
000002d0: 3fb2 07bd 550e 62bd 10ca 94bc cb50 8bbc
000002e0: 3430 54bd 4641 2c3d 6837 823c da45 553c
000002f0: bdd3 25bd ebef fdbd 2421 64bd 6a50 9cbd
00000300: 2973 4ebd 4e1f d5bd 8c55 77bd d852 d7bd
00000310: 24cb 5fbd a23d cdbd dc4f f3bc 3c7c 093d
00000320: 996c 5b3d 55db 31bc 2e1b 003c db3b 49bd
00000330: b335 59bc a6d4 28bd 084a 56bd 8466 51bc
00000340: 1b14 853d 7eb6 183d 98f4 1f3d e712 153d
00000350: 0928 d63d 8127 00bd 6f0f dcbb 0663 a93d
00000360: d5ab 1f3c 2065 abbc 90a5 4c3d 4767 de3d
00000370: f4f9 cc3b 3a46 513d d191 073e 5321 f93d
00000380: 91e2 243d 7069 603d e044 2d3d 278e 3c3b
00000390: 8da4 86bc c67e 933c fb0f af3c bcc2 ac3d
000003a0: 7427 dd3d 4f67 c63d 2721 50bd faec 64bd
000003b0: 3c56 11bd cb30 41bd 4515 40bc 6286 c2bc
000003c0: d520 4ebd 2810 9abd 4952 233c 6228 f0bc
000003d0: 3758 473d 3c9a f33c 540d c73d 13f1 bd3d
000003e0: 08b6 ba3d 7dd3 a73d 3ef6 b43b a416 ca3d
000003f0: c906 783a f86b 3abc b45e 413d b97b 603d
