checkpoints/motion_deblurring_teacher_best.pth (torch, 206925 bytes, 116 tensors)

entry.weight f4 [32, 3, 3, 3]
00000000: 8286 f93c acbb 91bd f6ec cebd 43d5 b73d
00000010: 5f78 143e 0def a7bd a394 393d 5584 80bd
00000020: 6e8c 953d 1754 d4bd 492b 1abe 2893 8c3c
00000030: 7d52 9c3a 4f2b 0b3e 5920 773c 17f0 0d3e
00000040: 5288 08be f362 1d3d cdc7 43bd 51d9 213e
00000050: f271 1ebe 04c7 d4bd 5ca9 5a3d 6413 74bd
00000060: e4a1 c8bd 3787 95bd ca27 07be 868e 1dbe
00000070: 6f76 d43d 72bc 22be 830f 1a3e a341 013e
00000080: 18f4 10be d176 da3d fddd 0cbe d1ee a7bd
00000090: 5f37 80bc 3400 9e3d c298 113e 7b17 393e
000000a0: 8c40 dfbd 9bb2 06be 1537 32be 252f ba3d
000000b0: 1379 b43d fc5d 0b3e 938d 01be e8e0 a13d
000000c0: 9572 bcbd 4c54 383e f6a6 3c3e 6371 653d
000000d0: 8b33 013e cdaf 893d 94b9 e7bd 183d bbbc
000000e0: 43f9 aebd 0a6c d13d 5a01 cd3d e5b2 1d3e
000000f0: b002 58bc 99a7 873d 620a 463d 5401 40bc
00000100: 2a0e 23be fbd2 56bd a37c 0c3e 014e 2c3e
00000110: f05c 68bd 060c 363d 4490 473d 5c78 b63d
00000120: 46ac fbbc 24fb 623d 461c e7bd fb92 2dbe
00000130: 5a5a 623e 4700 323e 5009 dd3d d257 d23d
00000140: f2eb 553e b45a fbbc d80c ecbd cf19 d03d
00000150: 4503 7fbd a49f b53d 852b 123e a9e1 bb3d
00000160: 9170 163e 25b4 a6ba f7d9 b3ba 2555 ca3d
00000170: ace6 04be 0bec 09be 7103 203d 490d 09be
00000180: c983 f93d e422 f43d 91ea 0d3d beb3 203e
00000190: 5316 f5bc 548d 9b3d 28b2 dbbd 9bea 323d
000001a0: da67 a43d 321c 193e ab93 c7bd ca65 143d
000001b0: 5c1d dd3c 334f 933d b697 00be 83dd 003e
000001c0: da0b 13bd 14a7 853d 1492 05be bb43 663e
000001d0: 52c6 f3bd b96e 3a3e 0266 7c3d 90f7 4b3e
000001e0: cb7d 1a3e 7227 5a3e efbf 31be d13e 2abe
000001f0: 1bcd ae3d b669 adbd e4f0 f7bc c152 013e
00000200: 1a5c 12be d11f b5bd d26d 973d 4549 4abc
00000210: adea b6bd b4e2 143e 48ed e23c c842 7cbd
00000220: 4028 f8bc 70fb 3abe 4557 0dbe 4a0f 04bd
00000230: 6c5c b43d cf41 30be bdac b5bd a0d5 a7bd
00000240: cb8d 3d3e 47e1 95bc 8189 a43d 10a3 d83d
00000250: 0ba6 73bc dd4b b2bd aaa5 a4bd 7585 08be
00000260: 2e54 dcbd b6d2 4a3d 5577 4bbe bb82 50be
00000270: 1a65 873c 8320 383d 19d3 bfbd ee76 fdbd
00000280: f003 44be eebd fa3c d2b2 54bd 05bc e2bd
00000290: a2aa c3bd f703 ad3d f410 1fbe 3c83 ae3d
000002a0: e5b5 c2bd a709 13be 8f02 06ba 7b6e 34be
000002b0: 6059 823b dff0 ef3d f169 b8bd 5bcd 843d
000002c0: 4d57 bfbd 3e55 273e 1116 183d 32b7 503d
000002d0: cdb7 1b3e f068 04be f0df a4bc 6fdc 82bd
000002e0: a4db 163b 15aa 173d 11df 13bd b862 abbd
000002f0: 9cef e0bc b19d 1fbe e3f3 283d 6a42 d8bd
00000300: 6a92 dd3d 0a79 4a3b a8bb 23be 6d1b 303e
00000310: 6cc4 04be 10ed e23d 8034 33be 1b92 65bd
00000320: cdda 6d3d 9734 8e3d 9e17 823d efe3 0b3e
00000330: d721 a3bd 7ef2 d23d f3b2 48bd 9466 0d3e
00000340: 86e5 903d b586 dbbd ba74 8ebd b2e4 98bd
00000350: b62e 483e 55b4 913c a49d 383e fbd0 013e
00000360: 1d5b 373d 298c 503e 2ac0 37bd 80f7 6ebd
00000370: ecb6 8dbd d3ff 083e 5d89 383e 356d 063e
00000380: db81 ea3c 4489 38be b37a 853c 4753 0bbe
00000390: d31f 26be b497 0c3e 3da7 0abe b583 633d
000003a0: 6129 ffbd 9f15 f73d 5ded 833d a8bf 8bbd
000003b0: 1c52 093e 66eb c9bd 366b 05be 3792 063d
000003c0: c0f1 453d c6ec 263e f9bd aab9 836d 873d
000003d0: a46e 363e 4b7e 9dbc 4222 13be d066 59bb
000003e0: dc41 49bd f703 0ebe de37 973d 4ec6 04bd
000003f0: 2724 f73d efe0 57bc dc49 b23d 473e 91bc
0.030459646 -0.07115874 -0.101037905 0.08976223 0.14499043 -0.08199892 0.045307767 -0.0627524
0.073021755 -0.10367601 -0.15055574 0.017160013 0.0011926439 0.1359074 0.015083396 0.13861118
-0.13333252 0.038424443 -0.047797967 0.15805556 -0.15473154 -0.10389522 0.05338417 -0.059588805
-0.09796503 -0.07301181 -0.13198772 -0.153864 0.10374152 -0.15892199 0.1504498 0.12622695
-0.14155614 0.10667194 -0.13756557 -0.081998475 -0.015651403 0.077148825 0.14218429 0.18075363
-0.10900983 -0.1315407 -0.17403825 0.09091023 0.088121556 0.13610071 -0.12651663 0.079042256
-0.09201542 0.18000907 0.18423066 0.056016337 0.12617318 0.067229845 -0.11314693 -0.02285628
-0.08543637 0.10225685 0.100100234 0.15400274 -0.0131842345 0.066237636 0.048349746 -0.011719067
-0.15923372 -0.0524473 0.1371942 0.16826631 -0.056729257 0.04444506 0.048721567 0.089096755
-0.030721795 0.055415288 -0.112846896 -0.169506 0.22104779 0.17382918 0.10792792 0.10270657
0.20890787 -0.030682899 -0.11525887 0.101611726 -0.062258977 0.0886834 0.14274414 0.09173901
0.14691378 -0.0012718482 -0.0013721575 0.09879521 -0.1297862 -0.1346895 0.039065782 -0.13383974
0.12183339 0.11920717 0.034647528 0.15693566 -0.029917872 0.075953156 -0.1072734 0.04368077
0.080276206 0.14952162 -0.09744962 0.036229886 0.026991539 0.071928404 -0.12557873 0.125845
-0.035899974 0.06526008 -0.13044006 0.22486775 -0.11903061 0.182063 0.06162072 0.19918656
0.15087049 0.2130411 -0.17358373 -0.16625525 0.085352145 -0.084674284 -0.030266233 0.12629224
-0.14292946 -0.08843959 0.073939934 -0.01234657 -0.089314796 0.14539605 0.027701035 -0.061587125
-0.03029263 -0.18259978 -0.13802822 -0.032241143 0.088066906 -0.17212604 -0.08870838 -0.081950426
0.18511121 -0.018295897 0.08034039 0.10577977 -0.014871131 -0.08705876 -0.080394104 -0.1333216
-0.107582435 0.049517356 -0.1986974 -0.2036237 0.016527701 0.04495288 -0.093664356 -0.123762
-0.19142127 0.030608144 -0.05192835 -0.11071018 -0.0955403 0.08448022 -0.15533811 0.08521125
-0.0950735 -0.14359151 -0.00051120756 -0.1762027 0.0039779395 0.117158644 -0.09004582 0.06484481
-0.09342823 0.16341111 0.03713042 0.05095596 0.15206833 -0.12930655 -0.020126313 -0.063897006
0.00230191 0.037027437 -0.036101405 -0.083684385 -0.027458005 -0.15587498 0.041248213 -0.105595425
0.10818942 0.0030894899 -0.15989554 0.17197962 -0.12965554 0.11080372 -0.17500496 -0.05604754
0.058069993 0.069436245 0.06352161 0.13661169 -0.07965439 0.10300158 -0.048998784 0.13808662
0.07075028 -0.10719053 -0.069558576 -0.07465495 0.19549069 0.017786184 0.18028885 0.12677376
0.044764627 0.20365967 -0.044860996 -0.058341503 -0.06919655 0.13378839 0.1802115 0.13127597
0.028626373 -0.18021113 0.01629386 -0.13605987 -0.16223077 0.13729745 -0.13540359 0.055545527
-0.12459064 0.12064671 0.06441758 -0.06823665 0.13410228 -0.09859352 -0.13029179 0.032854285
0.048326254 0.1630126 -0.00032566467 0.066126846 0.17815644 -0.01922526 -0.14368537 -0.0033172853
-0.049135074 -0.138687 0.07383703 -0.03241568 0.120674424 -0.013176187 0.08705494 -0.017729891

entry.bias f4 [32]
00000000: 56bd 283d 2a91 20be 6fbd 27be ab0f 17be
00000010: 475d 1e3e 70f6 07be f337 443e 7cf0 f3bc
00000020: c123 00bc 34d7 123e 28a6 a23b 3924 a93d
00000030: 9ca1 e1bd f248 433e 85dc b3bd 5915 18be
00000040: ceda ea3d d6b0 72bc 7077 fb3b abf1 10bd
00000050: 7858 363e b653 33bc ca34 abbc 633d d2bc
00000060: 4f23 263e 35d7 e0bd 8866 fa3d 8bf1 143e
00000070: 3f2a 02be 2ba6 18be 0504 f8bd d23a 0cbe
0.04119619 -0.15680376 -0.16380857 -0.1475207 0.1546527 -0.13277602 0.19161968 -0.029777758
-0.007821024 0.14339906 0.004963655 0.08258862 -0.11017153 0.19070795 -0.08782295 -0.14851893
0.11467515 -0.014812669 0.00767415 -0.035386723 0.17807186 -0.010945251 -0.020899195 -0.025664037
0.16224407 -0.109785475 0.122265875 0.14545266 -0.12711428 -0.14907138 -0.12110142 -0.13694313

blocks.0.scale f4 [1, 32, 1, 1]
00000000: ca29 7e3f 5be9 7f3f 11bc 7d3f c233 7f3f
00000010: b637 7e3f 7e92 7c3f 7db1 7c3f 2ffa 7f3f
00000020: 806b 7f3f 6651 843f 70bd 7e3f 36b5 813f
00000030: fb9e 7f3f a631 7e3f 7b9c 793f dbae 7d3f
00000040: a38d 833f 3b3d 7a3f f626 773f 3b18 793f
00000050: c2e8 7d3f fe93 7e3f 9d6d 7a3f 8c16 803f
00000060: 1caf 7e3f f026 813f 8e93 7b3f 44b2 7c3f
00000070: b38e 803f 92bb 803f 9e0b 7f3f adf8 7e3f
0.99282515 0.9996545 0.9911509 0.9968835 0.9930376 0.9866103 0.98708326 0.99991125
0.99773407 1.0337341 0.9950781 1.0133426 0.9985196 0.9929451 0.97504395 0.99094933
1.0277599 0.9774968 0.96543825 0.973026 0.99183285 0.9944457 0.97823507 1.0006881
0.99485946 1.0090008 0.98272026 0.9870951 1.0043548 1.0057242 0.996271 0.995982

blocks.0.conv1.weight f4 [32, 32, 1, 1]
00000000: cccc 2a3e 0b2b c83d 7f26 3bbe 28f8 eb3d
00000010: 6c97 17be 6642 f6bd d3f6 0d3e 86e0 2dbe
00000020: 96df 743d 21fc f93d 9cde 08bc e2b6 4d3c
00000030: 0db0 e23d 7647 99bd 29ea 483e bb06 003e
00000040: 46f3 71bd 53bf c8bc d650 edbd dcb8 6abc
00000050: 9f24 4b3c 8c34 09bb e8c5 c03d 7ec7 77bd
00000060: 037b debd 1859 123e e8a1 fb3a e63e a93b
00000070: afd2 edbd a1b7 45bd ac84 3ebe affb bebd
00000080: 4069 bf3d 4f55 973d fa7f 14be 9467 7dbd
00000090: 25c7 4f3d c895 343e 1694 713d aa1e 2bbe
000000a0: cf6d 773d a6e3 913d 1626 a0bd f7ab 25bb
000000b0: fcd5 a23d 796d f83d b2cd 3f3d c668 18be
000000c0: 02d8 de3d e12a 643c fbbf 0fbe 705c f4bd
000000d0: ed96 29be 765f efbc 9196 783b e1d5 72bc
000000e0: 392e 213d 22d7 bcbd 43e6 293d 45b7 ea3c
000000f0: e023 54bd dd82 f63d 72ff fbbd 237e 52bd
00000100: f2bf 2b3e 23df 843d de79 1a3d 2cf9 12be
00000110: 59e5 96bd 3757 7cbd e667 213e c84d 663d
00000120: 5ab6 ad3a b0bc 22bd 7fcf 30be b6c1 2e3e
00000130: c7b1 753d 71b0 2f3e 7a5a cabd 75c4 88bd
00000140: 5138 21be 4dca 173e e0c2 083e ad3f d13a
00000150: 2b8a 8b3d 01db 223e 89f1 013d d50c 413e
00000160: 2bf8 733c 06d8 013e 7dfb 793c cdc0 2dbe
00000170: d153 dabd fdcd 483b 062b 17be 8dce d43d
00000180: 4e99 dcbd 0734 133e 4899 90bd 86d0 203e
00000190: 8104 233e 7693 133e 8e6a e23d 9847 e5bc
000001a0: 74b8 41be 1941 fe3d cc76 94bd b286 583e
000001b0: 6dd9 a5bd 9182 4cbd ca8d debd 34c8 d73d
000001c0: 7753 393c ebcf 153e d59e 05be b8ad afbc
000001d0: bb58 87bd 11b2 e33d 00ae 2ebe 1753 2ebe
000001e0: b934 d6bd c7e3 09be 17dd 833c 2a46 163e
000001f0: e98c 293b 7e3f 633d 58bb 48bc 440c 1ebe
00000200: 0d17 35be 4604 0d3e 98eb 5ebd 982e 923d
00000210: 41fc 2cbe 733e b6bc 0ddf 8dbd 9f96 d8bd
00000220: 22d0 973d 13f8 37be f63e 4fbd f10a d1bd
00000230: 7963 d4bc 993b 013e fa4a 97bd 5901 40bd
00000240: 1d92 90bd 4137 f9bd 20c6 e4bd dc99 4ebe
00000250: 5c71 d9bd 7d7f 75bd a47e babd ec70 a2bb
00000260: 5a25 613e f303 62be 9d6e 43bd 3953 783d
00000270: ad17 19be 6fc6 413d d763 babd bdee ff3d
00000280: f7e4 23be ca73 8a3d d3f7 a53d 6f7e 80bd
00000290: 9dd0 4a3e 54cd 273e 9340 2dbe de47 37bb
000002a0: 0708 b3be 52af 19bd 82e4 233d abef 76bd
000002b0: c6b3 6cbc e796 ddbd ca7a 293e a49c 8f3d
000002c0: 5cb0 a53d df74 e33b 9773 293e b446 083d
000002d0: baf7 a4bd e3af 64bc c7ff 84bd 69ee 7f3c
000002e0: 91c3 abbd 438e cabd 31f3 7e3d 0fe2 0b3d
000002f0: c641 b4bd 97a5 b4bc 9cc5 0b3e 0d8a b0bd
00000300: 08d7 3cbe 9856 e2bd 9525 a33d 3f91 efbd
00000310: d053 be3b 9162 cb3d 5124 b43c 677e 33be
00000320: 403e c9bd 4d45 b5bd 4d55 22bd ad13 53be
00000330: edad 8ebe 3d37 0cbe 01b9 89bd ae8a 50be
00000340: 58a8 88bc 33db 3abe 782f 973b 2e02 f73d
00000350: 0b82 0f3e c82f 2ebe 6630 3b3e dc13 42be
00000360: 0d6e 0e3e 8651 dfbd b852 3a3d e50d bebd
00000370: 6183 993d 013b 273e 4ab7 9fb8 b2dd d8bd
00000380: 0759 103e 13fa 1ebe 144d 1a3e 8759 683d
00000390: aa72 9bbc 0843 01be 1160 10be 29ba f23d
000003a0: 5811 113d f973 0b3e 2929 94bd e9b2 8fbd
000003b0: f950 3f3c 499a f53c 96ff 1f3e a85e 0a3e
000003c0: ef80 bebd 5319 16be 9327 81bd e6b1 e33c
000003d0: 7d6e 25bd 417e b13c badb 4a3d d95e fabd
000003e0: 4f67 a23c d2d3 f23d 04c9 d53d 9095 26bd
000003f0: 26cc c03c b776 a43c 5fa0 e63d 646a d33c
0.16679686 0.09773835 -0.18276404 0.115219414 -0.14803857 -0.12024383 0.13863687 -0.1698018
0.05978354 0.12206293 -0.008353855 0.01255581 0.11068735 -0.07484333 0.19620575 0.12502567
-0.059069894 -0.024505293 -0.11587684 -0.0143263005 0.012398868 -0.0020935861 0.094127476 -0.060492985
-0.108633064 0.14291799 0.0019198032 0.005164969 -0.1161245 -0.048270825 -0.18605298 -0.093253486
0.09346247 0.07389318 -0.14501944 -0.061866358 0.05072703 0.17635262 0.058979116 -0.16710916
0.060407456 0.071234986 -0.07819764 -0.00252795 0.079509705 0.12130255 0.046827026 -0.14883718
0.10881044 0.013926239 -0.14038078 -0.119316936 -0.1656148 -0.029220324 0.0037931541 -0.0148215005
0.039350722 -0.09220721 0.04147936 0.028651843 -0.051792026 0.12036679 -0.12304582 -0.051389825
0.1677244 0.064878725 0.037713878 -0.14352864 -0.07367963 -0.061606612 0.1576229 0.05622652
0.0013253198 -0.039730728 -0.17266653 0.17066082 0.059983995 0.17157151 -0.09880538 -0.06678096
-0.15744139 0.14823265 0.13355589 0.0015964411 0.06813463 0.15903856 0.031724487 0.18852551
0.014890711 0.12680063 0.015257713 -0.16968079 -0.10660518 0.0030640357 -0.14762506 0.10390959
-0.10771428 0.14375316 -0.07060486 0.15704545 0.15919687 0.1441172 0.1105548 -0.02798824
-0.1891802 0.1241476 -0.07249221 0.21145132 -0.08098111 -0.049929205 -0.10866888 0.105362326
0.0113114035 0.14630096 -0.13048871 -0.02144514 -0.06608721 0.11117948 -0.17058563 -0.17023884
-0.10459275 -0.13465796 0.016096635 0.14675203 0.0025871343 0.055480473 -0.0122516975 -0.15434366
-0.17684574 0.13771161 -0.0544239 0.07137793 -0.16893102 -0.022246575 -0.06927309 -0.10575604
0.07412745 -0.17965727 -0.050597154 -0.10207165 -0.025926339 0.12620391 -0.073873475 -0.046876285
-0.07059119 -0.12168742 -0.11170602 -0.2017588 -0.10617325 -0.059936035 -0.09106186 -0.004957309
0.21986905 -0.22071819 -0.04771291 0.060626242 -0.14950438 0.04730838 -0.09101074 0.124967076
-0.16005312 0.06760366 0.08103909 -0.06274115 0.19806142 0.1638692 -0.16919164 -0.002796642
-0.34967062 -0.037520714 0.040012844 -0.06028716 -0.014447158 -0.10819798 0.16550747 0.07012299
0.080902785 0.0069414224 0.16548 0.033270553 -0.080550626 -0.01395795 -0.06494098 0.015620806
-0.08386911 -0.098904155 0.062243644 0.034151133 -0.08801608 -0.022051616 0.136496 -0.08620081
-0.18441403 -0.11051673 0.079661526 -0.11697625 0.005808331 0.099309094 0.021989973 -0.17528687
-0.09826326 -0.08851109 -0.03963213 -0.20612974 -0.2786707 -0.13692947 -0.0672474 -0.20365402
-0.016681835 -0.1824768 0.004613813 0.120609626 0.14014451 -0.17010415 0.18280181 -0.18952888
0.13909169 -0.10904221 0.045489043 -0.09279994 0.07495762 0.16331102 -7.615851e-05 -0.1058916
0.14096461 -0.15525083 0.15068465 0.056726005 -0.018975575 -0.12623227 -0.14099146 0.118519135
0.03541693 0.13618459 -0.07234413 -0.07016546 0.01167702 0.029980795 0.15624842 0.13512671
-0.09301936 -0.14658098 -0.06306376 0.02779479 -0.040388573 0.021666648 0.049525954 -0.12225122
0.019824652 0.11856808 0.10438731 -0.040669978 0.023534846 0.020076139 0.11261057 0.025807567

blocks.0.conv1.bias f4 [32]
00000000: 3615 f0bd d5e9 a3bd 44c3 57bd 7c38 a63d
00000010: dc87 15be 8b03 583d f6f3 0b3e 8d15 09ba
00000020: 6595 f3bc 87eb f63c bc29 a7bd 36b4 cdbb
00000030: 4382 413d 6537 dfbd f036 8b3c 36c4 8ebc
00000040: f086 da3d e05d fc3c 86ba f6bd 6482 19be
00000050: aecc 353e 3e59 2dbe 6149 fdbb 9d4d 78bc
00000060: c151 643d abf1 b73d 4e31 0cbe 25e7 9e3d
00000070: 9358 553d f901 0f3e b901 5bbd 56e9 2d3d
-0.11722796 -0.08003584 -0.052676454 0.08116242 -0.14602607 0.052737754 0.13667282 -0.00052293466
-0.029734323 0.030141605 -0.08162257 -0.0062775863 0.047243368 -0.108992375 0.01699397 -0.017427545
0.106702685 0.030806482 -0.12047295 -0.14991146 0.1775386 -0.16928574 -0.0077296947 -0.015155223
0.05574203 0.089816414 -0.13690683 0.07758931 0.052086424 0.13965596 -0.05346844 0.042458855

blocks.0.conv2.weight f4 [32, 1, 3, 3]
00000000: d25b 103e 01b2 443e 49bb 703e 56ca e53d
00000010: 8cc7 9e3e 32c6 903d 6e53 e93d babc 813e
00000020: cca0 e1bc 1f8b 623e f258 a33e 70ed 033e
00000030: bc06 773e 158a 413e 5811 fc3d 3588 21be
00000040: e4af 60be 7eb7 1f3e 7799 6dbe 51eb 9e3e
00000050: a197 49be 5cc0 8c3e 7360 82be 9d23 25bd
00000060: 5cc6 3d3c ff52 35bc 34b4 6bbe 342b 603d
00000070: 52ad 32be 0f8d 2fbe d299 87be 7ffd 763e
00000080: d4ea b3bd d5f5 8fbe 69d0 a1be ddf5 fcbd
00000090: 134e a43e cfaa 35bd 7751 92be 40de a53e
000000a0: 0f49 81bd b2a0 6abd 8853 793e b9d4 d63c
000000b0: a3c8 8abe 1cdf 103e 07c7 853e cd43 8c3e
000000c0: db56 49be 641a 9e3e 0066 08be 0ef5 dabc
000000d0: 4aa1 6cbe 1e4d 7abe bccf 913e c250 6dbe
000000e0: 6cd1 2d3c 8a8d 853e 80b9 babe fbed 6b3e
000000f0: 929b 7cbe 872e 58be d420 90bc 0d9a 543e
00000100: d87b a73e dbd4 14be ac22 40bd 2e3f 2c3e
00000110: 0d9d 083d 3485 5b3e 1916 a63e 8f41 20be
00000120: 5e63 553e 6513 aabe f973 8ebe 7a1d afbe
00000130: 3305 83be ccd1 b6be 2252 a4bb 2cf5 d63d
00000140: c964 98be 8f25 083c dc36 a23e 2eb9 ce3d
00000150: 8e53 a6be d1e7 603d 9481 4b3d d5f8 42be
00000160: 719e 893e cb95 ff3b b15b c3be 3044 843d
00000170: ec36 28be 701a 5f3e 9c08 0f3e 8765 d5bd
00000180: 2896 943e 773e 943e f550 783e 4d1c 28bd
00000190: de3c 3dbe 8e20 a2be 183c 253e bb55 82bd
000001a0: 2e65 a3be 2be4 17be 9fbc e13d afe2 763e
000001b0: 85a0 e43d 545f 4c3e ed30 41be e8ad 783e
000001c0: d3e9 1cbe c606 3abd acbe 683e 9990 3c3e
000001d0: eafa 593c 855e d13c f43b 5cbe 3c49 5b3e
000001e0: dc59 ad3d a4d0 25be 59e8 a9be 0da3 433e
000001f0: 98a9 b83d f740 6ebd 3a95 2d3c ecf6 15be
00000200: 238f 3cbe 79d6 75be d3c4 a23d 207a 43bd
00000210: e72c 2abe 00ef 413e 2453 2d3e 5c25 57bc
00000220: d638 a73e 4b65 0a3e 415d 533b 7281 10be
00000230: 7e1c 8b3e d1bd 73be 503d 4dbe 67fd a23d
00000240: 89ec 12be ddf5 94be cb6c 25bd 8929 bbbd
00000250: 2615 bb3d 5ed0 8fbe 5557 ccba 3232 9b3e
00000260: f69e 0e3e 689c 0ebd 9a8e 94be 67e9 63be
00000270: 101f 2a3d 0815 80be 5c08 9fbd 728f a9be
00000280: 079e a4bd 9fc6 5c3d 5fd6 4f3e 75ae 39be
00000290: fd87 3c3e 2b65 833e f52d 48bd 0261 f13d
000002a0: 7479 f4bd 6a9c 6fbe 0fe8 a1be b1f8 b5bd
000002b0: 6a42 8c3e 313b 42bd d886 02bd 643d 7f3e
000002c0: d865 4fbe 89ca 4a3e 70bd 8e3e dff1 a2be
000002d0: a5ca 5f3e 4970 88be b659 8abe 82ac 3fbe
000002e0: 73e3 9cbe 9262 7abe 13ea 723d d482 31be
000002f0: c500 86be 8eb3 263e 828d 96be cc1f adbd
00000300: d6e6 803e 564c 613e d356 0dbe 62ec 123e
00000310: 897a 413e d1a8 69be a74a 8e3e 8084 b1be
00000320: 1e3f 9b3e 1d36 953e 102c 92be 0a10 b3be
00000330: 8dd1 5f3e 31e1 143e af0e 553d 088a e03d
00000340: b601 a3bd c6ac 573e a73c 623e 08c6 dcbc
00000350: 9b55 1e3e ec8b 89be 60a8 4cbe 2536 ac3d
00000360: c1ba 163e 403c a73e e56a 7d3e 67e3 8c3e
00000370: fcaf 473e 7ce8 a73e e400 fabc 3ca8 a1bd
00000380: cc22 283e a752 11be 3da7 bf3d efcd 443e
00000390: 192f 07be 65bf 89bd 32f0 15be 648b 233e
000003a0: 0397 e93d 7700 aabe bb06 5ebe 5d43 263e
000003b0: cbef 873e 81d7 683e b5c3 d0bd 207b 99be
000003c0: e328 843d e94e 033e d57d 36be 5f4a f03d
000003d0: faf2 6e3e 1da0 713d 9972 6cbc 3d98 c9be
000003e0: 6f8f 1cbe 01b5 a3bd f9b5 9fbd 3444 823e
000003f0: bb88 9abe eb37 a53e 0744 d9bd 9459 a03e
0.14097527 0.19208528 0.23508944 0.11220233 0.31011617 0.07069053 0.11392866 0.253393
-0.027542494 0.22123383 0.31903797 0.12883544 0.24123663 0.1890033 0.123079956 -0.15774615
-0.21942097 0.1559734 -0.23203073 0.31038907 -0.19686748 0.2749051 -0.2546421 -0.040317167
0.011582937 -0.011067151 -0.23017961 0.0547287 -0.17448929 -0.17143653 -0.26484543 0.24120139
-0.08785024 -0.28117242 -0.31604317 -0.12351582 0.32090816 -0.04435235 -0.28577778 0.32396126
-0.06312763 -0.057282157 0.24348271 0.026224481 -0.271062 0.1414761 0.26128408 0.27395478
-0.19662039 0.3087951 -0.1332016 -0.02672818 -0.23108402 -0.2444348 0.284788 -0.23175338
0.010609012 0.26084548 -0.3646965 0.23040001 -0.2466872 -0.21111499 -0.017593779 0.2076189
0.32711673 -0.14534323 -0.046908066 0.16820976 0.0333529 0.21437532 0.32438734 -0.15650009
0.20838687 -0.33217922 -0.27822855 -0.34202176 -0.25589904 -0.35706937 -0.005014674 0.104959816
-0.29764393 0.008309736 0.3168248 0.10093914 -0.32485622 0.054908577 0.049684122 -0.19040234
0.26878694 0.007799839 -0.38155892 0.06458318 -0.16427201 0.21787429 0.13968128 -0.104197554
0.2902081 0.28953907 0.24249633 -0.041042615 -0.1848025 -0.31665462 0.16136205 -0.06364008
-0.3191313 -0.14833133 0.11022305 0.2410991 0.11163429 0.1995824 -0.1886632 0.2428509
-0.15323572 -0.045416616 0.22728986 0.18414535 0.0133044515 0.025557766 -0.21507245 0.21414655
0.08464405 -0.16192871 -0.3318508 0.19105168 0.090167224 -0.058167424 0.01059466 -0.14644974
-0.18413977 -0.24007596 0.079476975 -0.04772389 -0.16618691 0.18938828 0.16926247 -0.013131466
0.3266055 0.13515203 0.0032251629 -0.1411188 0.27170175 -0.23802878 -0.2004292 0.07958489
-0.14348044 -0.2909383 -0.040386956 -0.091387816 0.09134893 -0.2808866 -0.0015589992 0.30311733
0.13927826 -0.03481713 -0.29015046 -0.22257005 0.04153353 -0.25016046 -0.07765266 -0.33117253
-0.08037954 0.053900357 0.2029662 -0.18132956 0.1841125 0.25663123 -0.048871953 0.11786081
-0.11937228 -0.23399511 -0.3162236 -0.08885325 0.2739442 -0.04741973 -0.03186688 0.24925762
-0.20253694 0.19803824 0.27878904 -0.31825158 0.21854647 -0.26648167 -0.2702157 -0.1871815
-0.3064228 -0.24451664 0.05930526 -0.17335063 -0.26172462 0.16279432 -0.29404837 -0.084533304
0.25176114 0.22001776 -0.13802652 0.14347985 0.188944 -0.22818305 0.2779133 -0.34671402
0.30321592 0.29142848 -0.28549242 -0.34973174 0.21857281 0.14539029 0.052015956 0.10963827
-0.07959311 0.21062002 0.2209345 -0.026949897 0.15462343 -0.26864564 -0.19986105 0.08408765
0.14719678 0.32663155 0.24747808 0.27517244 0.19500726 0.3279456 -0.030518003 -0.07893416
0.16419524 -0.14191686 0.0935807 0.19219182 -0.1320156 -0.06725959 -0.14642408 0.15971142
0.11405756 -0.3320348 -0.21682255 0.16236635 0.26550135 0.22738458 -0.10193578 -0.2997675
0.06453111 0.1282307 -0.17821439 0.11732935 0.23334876 0.058990587 -0.014431619 -0.3937396
-0.1528909 -0.07993508 -0.077983804 0.2544266 -0.30182442 0.32269225 -0.10608678 0.31318343

blocks.0.conv2.bias f4 [32]
00000000: 81cc 683e 9480 003e 28f3 c7bd fc51 053d
00000010: 1f7e a43e 545c 97be d2b0 273e 5dbd 873b
00000020: 69a1 3b3e 869b 403c ee43 8b3e c145 263e
00000030: 69df d93c 40ac 26be 78cd 36be 1de2 a53e
00000040: 46ef d53d 7e43 0f3e f42d 3cbc 21c6 3e3e
00000050: 1477 953e 70d3 a63d 3a1c 14bd 6cae 483e
00000060: 6daa 81bb 54a7 57be 9eff 8a3c cd82 523e
00000070: db43 813e 650d ea3d 4085 4bbe ecfa 95be
0.22734262 0.12549049 -0.09763175 0.03254889 0.32127473 -0.29562628 0.16376045 0.004142447
0.18323292 0.01175583 0.27200264 0.16237547 0.026595788 -0.16276646 -0.17851818 0.32399073
0.104460284 0.1399059 -0.011485565 0.18630268 0.29192412 0.08145797 -0.03615973 0.19597787
-0.003957084 -0.21059924 0.01696759 0.20557709 0.25247082 0.11428336 -0.1987505 -0.29293

blocks.0.conv3.weight f4 [32, 32, 1, 1]
00000000: 4ef2 7a3c b5dd d9bd f8b6 013e 9bcd a3bd
00000010: d796 27be b6e6 123e aab6 14bd 0e03 1b3b
00000020: 7c8f 03be 7982 aabd 478b 123e 5f45 103e
00000030: cd15 be3d dbda a93d 2706 993c 4580 f03d
00000040: c9d4 4f3c 884d 083e dbef 4ebe 8f54 123e
00000050: 0e3f a03d 823a deba 0f17 8b3d 6ac7 d5bd
00000060: 9421 9bba 37cd 6ebd 7bab 443d adb9 5039
00000070: 85bf 803d bccf 583d 8583 a5bc 59b3 ee3d
00000080: 96d6 3bbd 4a84 96bd 14da 09be 0526 15be
00000090: a0e2 883d 2880 8e3d 8555 f23d ca9a 92bc
000000a0: 5888 013d 1f00 82bd 1d3d 603d a6fd e6bd
000000b0: aed2 febb 7873 42bd e9e8 0e3e 8fde 8ebd
000000c0: 660d 093e 0236 ae3d 9187 19bd 72e9 69bd
000000d0: f01a ba3d 9485 f23d a5cc 20be e385 b2bd
000000e0: b4b3 8abd ccb7 05be fe72 bdbb 3985 b43c
000000f0: 2778 1fbd 38dc 8bbc 78a2 bf3d 83df bfbd
00000100: 6378 d13d 874e febd bdc7 123e cdec 9bbd
00000110: 2335 683d 1f00 353d 398b 33bd eb45 c7bc
00000120: a808 e13d 61f4 dbbb 5f58 36be f596 f23d
00000130: 0ecd 1b3b 8937 453c 4dce 703d 2157 80bd
00000140: 4bea 0a3e 0784 85bd 5126 a2bc b63c 5cbc
00000150: bfaf c23c 6e9a 253e d901 0d3d 5dc6 153e
00000160: 9351 993d 29e9 17be 926e ba3a 0ddd f03d
00000170: d957 24be f40d 46bd 295c 163e c765 313e
00000180: 5394 0ebd 6f1b 9e3d abaa d7bd 5757 a9bd
00000190: 45e8 943d deb4 8a3d 1994 63bd c9eb 59b9
000001a0: 6caa 2d3c 346e 183d e156 03be f580 59bd
000001b0: ee19 113e a05b bc3b 0dc5 453c 046a 843d
000001c0: edc5 883d 4fda ddbd 2b62 453e 3eb2 00be
000001d0: 1a4d 523e d97b d7bd 7435 ce3d 979e d73d
000001e0: c5af abbc 61b6 1b3e a31c 51bd 3f7a 043e
000001f0: 3590 043e b1ee 3bbd ee23 fb3d a6da c9bc
00000200: 4b43 17be 35e7 cd3d ba53 99bd 4e1a 3f3e
00000210: 5ef4 2c3b 74fa 853d 7ebd 0dbe 90a9 a8bd
00000220: 3bb6 383d cb8d 903d 9827 473d 5dbc 263e
00000230: 290e 03be d1a0 893c 5b7a 293e b92a 35bd
00000240: 59c9 0abe 9377 b93d 6c98 233e 3a83 8cbd
00000250: 80a5 273e 6281 f43d 8754 61bd 460c e8bc
00000260: 3848 46be ad3e 8cbc a21c 5b3d e2ce 00be
00000270: 5fbf a7bd 20f1 bb3c 0a50 9b3c b314 723d
00000280: d4f1 d33d 8c5c 16be fe68 153e 7f21 353d
00000290: 9559 08be cab3 823d 4ede cabd 5234 9ebd
000002a0: 0ab8 333d 5d8a f8bc 5603 c0bc 11d2 553d
000002b0: 1048 133c 6574 b8bd 253a f23d 67b6 cc3d
000002c0: f96e 17be df88 bcbd b228 723d 4cdc 353d
000002d0: bb75 3fbd 3ef5 13bd e0c2 e1b9 c385 00be
000002e0: ab99 d6bd bff8 1e3d 1790 0c3e 851b 28be
000002f0: dfc4 eabd d812 7ebd d9e3 0a3e fac8 b8bd
00000300: 18ef 9dbd e7b0 693d 0fcf c5bd 1188 003e
00000310: da25 e9bc 7a34 0cbb d590 603c 36a7 423d
00000320: 9f53 21be 7a15 123e 1f8d 6c3d 72cc 133e
00000330: 13b7 e4bd c852 45be b030 32be b0b5 51bd
00000340: fbed 48bd 7179 27bd 623b 253d ab10 00be
00000350: 0cd3 25be b628 f23d 245a 13be 6c95 14be
00000360: f07b 2f3d 12e6 7cbd 716e 84bd e667 353e
00000370: 1537 e3bd d64e 0dbc bb4e eb3d 9af8 c639
00000380: 9386 cd3d d206 d73b e625 0e3e e993 11be
00000390: f5e3 1d3e eed1 103e a2be 8839 0e8c 823c
000003a0: 9fea cabd b77b 0bbe 45c3 84bd f56a 0bbd
000003b0: 09a4 51bd a002 b73d c22c 673d dc25 edbd
000003c0: e3cb 8bbd f797 0bbe 230d 0fbe a4f1 cabd
000003d0: c3c2 bc3d 9884 e4bd b33a 77bd c426 0cbd
000003e0: 9d9d c93d fab5 193e 1133 913b b969 313e
000003f0: 49f9 b83d 3b14 233d c5c4 1bbe 703b 21be
0.015316559 -0.106379904 0.12667453 -0.079982005 -0.16366135 0.14345822 -0.036307015 0.0023652944
-0.12847704 -0.08325667 0.14310943 0.14088963 0.09281502 0.082936965 0.018679691 0.117432155
0.012685009 0.13310826 -0.20208685 0.14290069 0.07824527 -0.0016954693 0.067915075 -0.10438426
-0.0011835569 -0.058301177 0.0480151 0.00019905595 0.062865295 0.052932486 -0.020204315 0.116553016
-0.045858942 -0.07349451 -0.13462096 -0.14565285 0.0668385 0.069580376 0.11832718 -0.017896075
0.03162417 -0.06347679 0.054745782 -0.11278848 -0.00777658 -0.0474734 0.13956036 -0.069760434
0.13384017 0.08506395 -0.0374828 -0.057107396 0.09087169 0.11841884 -0.15703066 -0.08716943
-0.06772557 -0.13058394 -0.0057815304 0.022036182 -0.038932946 -0.017072782 0.0935716 -0.09368803
0.1022804 -0.12417322 0.14334007 -0.076135255 0.0566913 0.04418957 -0.043833945 -0.024325332
0.10987979 -0.006712482 -0.17807148 0.11845199 0.0023773345 0.012037166 0.058790494 -0.062666185
0.13565938 -0.06519323 -0.019793661 -0.013442209 0.023765443 0.16172192 0.03442559 0.14626451
0.07486262 -0.14835037 0.0014223626 0.11760912 -0.16049136 -0.04835315 0.14683594 0.17323981
-0.03480942 0.07720076 -0.10530599 -0.08268612 0.072708644 0.06772779 -0.05556116 -0.0002078257
0.010599714 0.037214473 -0.1282611 -0.0531015 0.14170048 0.0057482272 0.012070906 0.064655334
0.06678376 -0.10832655 0.1927573 -0.12567994 0.20537224 -0.10521669 0.10068789 0.105282955
-0.020957837 0.15206291 -0.0510527 0.12937258 0.12945636 -0.04588193 0.122627124 -0.024640393
-0.14771764 0.10053865 -0.07486673 0.18662378 0.0026390771 0.06541911 -0.13841817 -0.082354665
0.045095664 0.07058295 0.048621744 0.16282792 -0.1279837 0.016800316 0.16550581 -0.044230197
-0.1355337 0.0905601 0.15976113 -0.06860967 0.16371727 0.1193874 -0.055012252 -0.028326165
-0.19363487 -0.01711973 0.053494103 -0.1257892 -0.08190798 0.022942126 0.018959064 0.05910177
0.103488594 -0.14683741 0.14590833 0.044221397 -0.13315423 0.06381948 -0.099056825 -0.07724823
0.043876685 -0.030339414 -0.02343909 0.052202288 0.008989349 -0.090065755 0.118274964 0.09995728
-0.14788426 -0.092057936 0.05912084 0.044399545 -0.046743136 -0.036122553 -0.00043060537 -0.12551026
-0.104785286 0.03881144 0.13726841 -0.16416748 -0.114633314 -0.06202969 0.1356348 -0.09022708
-0.07711619 0.057053473 -0.09658634 0.12551905 -0.028460432 -0.0021393583 0.013706406 0.047522746
-0.15754555 0.14266005 0.05775177 0.14433458 -0.11167731 -0.1926986 -0.17401385 -0.05119866
-0.04905508 -0.0408873 0.040339835 -0.12506358 -0.16193789 0.11824171 -0.14389855 -0.14510125
0.042842805 -0.06174285 -0.064663775 0.17715415 -0.110944904 -0.008624753 0.11489626 0.00037950726
0.100354336 0.0065620923 0.13881645 -0.1421658 0.1541899 0.14142582 0.00026081974 0.015935924
-0.09908032 -0.13621412 -0.06482557 -0.03403755 -0.051181827 0.089360476 0.05643917 -0.11579487
-0.06825998 -0.13632189 -0.13969855 -0.099093705 0.09216835 -0.11158103 -0.060358714 -0.034216657
0.098445155 0.15010825 0.0044311364 0.17325486 0.09031922 0.039814215 -0.1521178 -0.1574533

blocks.0.conv3.bias f4 [32]
00000000: 978b 873d 444b 1dbe 5fac c83d 3a40 aabc
00000010: 4fe6 08be d774 02be 3d3e e0bd a03f 20be
00000020: c4e0 c73d 845f f43d daf0 2a3e 0f12 0bbb
00000030: 1319 dfbc e15c 28be f674 9f3d f6e6 38bd
00000040: e8e7 063d 67a1 f5bd 507c 8fbd d2d2 17bd
00000050: f782 ac39 d1c1 9d3b b015 7cbd 880b 05be
00000060: 48f9 29bd a5a3 82bd 1c68 eabd 3595 b6bb
00000070: 6b9c 363d 9827 1dbe 54ce 223d 999f 883d
0.066184215 -0.15360743 0.09798502 -0.020782579 -0.13369106 -0.12739883 -0.10949371 -0.15649271
0.097596675 0.11932281 0.1669344 -0.002122048 -0.027233636 -0.1644168 0.077859804 -0.045142137
0.032936007 -0.11993676 -0.070061326 -0.03706629 0.00032903973 0.0048143645 -0.06154412 -0.1299268
-0.0414975 -0.06378869 -0.114456385 -0.005571986 0.044582766 -0.15347135 0.03974755 0.06671066

blocks.1.scale f4 [1, 32, 1, 1]
00000000: 4b11 803f 38de 7f3f 35ce 7f3f 82be 7c3f
00000010: 68ee 793f 5588 793f 8a67 813f 3bd8 813f
00000020: e254 7f3f 9b94 7d3f a240 7e3f eaf3 7e3f
00000030: 0829 813f f171 7f3f 5829 803f 811b 7e3f
00000040: b33f 7f3f 39ee 803f 9665 803f 5b90 723f
00000050: 8999 7f3f 668c 7f3f 498b 7c3f b7bf 7a3f
00000060: b665 7f3f 0ded 7d3f d95c 813f ff91 683f
00000070: ac64 813f 9ba0 7f3f 639b 813f 9a5c 7e3f
1.0005277 0.99948454 0.9992402 0.9872819 0.97629404 0.9747365 1.0109723 1.0144113
0.99738896 0.9905488 0.9931737 0.99590933 1.0090647 0.99783236 1.0012617 0.9926072
0.9970657 1.00727 1.0031002 0.9475152 0.9984365 0.99823606 0.9865003 0.97948784
0.99764574 0.99189836 1.010646 0.9084777 1.0108848 0.9985444 1.0125545 0.9936005

blocks.1.conv1.weight f4 [32, 32, 1, 1]
00000000: 2325 a73d 4e65 053e 8005 b7bc d23a aa3d
00000010: d52f 2bbe 91fe 1e3d b37b 34bd 7ae8 453e
00000020: c8d8 3b3e fdef 1dbe 6f04 f2bd 2566 8f3d
00000030: f2eb 20bd 33fb 873c c502 753e 6726 0bbe
00000040: bc3d 09bd 2195 ac3d 76dc 03be 711b d2bc
00000050: bbe1 0c3e 3024 743d 16ea abbd 6420 ec3c
00000060: c6ff 933c 23dc 7abe 3432 523d 37c5 8dbe
00000070: f104 f3bd 630c 833d a4f1 c3bd 9203 0d3e
00000080: 8aa9 69bd 3886 fc3d a91f 073e f225 383e
00000090: 9236 4bbc a9bc f8bd 2a14 46bd 3694 3a3e
000000a0: dd0d 9c3d 4a6f 0bbe 1087 883d e131 d5bd
000000b0: 2451 ecbd 3a0f 333e 4c6e 053e 570b 35bd
000000c0: ca34 e2bb 88ea 92bd 4897 cc3d ddd0 23be
000000d0: e082 be3d f114 d43c 4d20 68bd f54c 4fbd
000000e0: 98a5 4a3c 3f3f 21bd 0a46 a53d df4f d1bd
000000f0: 650b 5abd 3d04 b73d b19e fb3d fc46 363d
00000100: 153e d83d 8579 07be de6b 7abd d12c 773d
00000110: b461 1dbe b856 f9bd d949 9c3d 05a3 94bd
00000120: aaaf 94bd 1f40 453e 4ebc 083e cd3d 013e
00000130: f46b dcbc cdba ffb7 3f82 16be c805 29be
00000140: 3ffe 37bc a10b afbd 218b 433d 9263 54bd
00000150: 07dd 06bc 3c95 d13c 0848 28be 86d9 a23d
00000160: 3d29 0bbe 6834 313c ed83 013d 92f9 073e
00000170: 6649 003d bc6d d8bd d880 13be c116 7bbd
00000180: c33c 2a3e 490d 363d e65d 05be fffe 0abe
00000190: bf6b d73d 6f1e e3bd eee7 aabd 5b7f 02be
000001a0: 71d1 423b 565a 1b3e 0d69 cb3d b8fd b93d
000001b0: d32b d4bd 1618 8cbd c4f3 863d 100b 2bbe
000001c0: c393 bc3d 7899 a5bd 2832 323e ba88 d0bd
000001d0: d123 f4bd cec3 f43c df70 313e 6a53 f6bd
000001e0: cf93 dd3c baae febd ec8c 343e 2511 05bc
000001f0: 9d38 b1bd 107d e8bc 04c0 093d cceb 8bbd
00000200: 5b96 10bd 2a79 203e 7f28 af3d 42af 853e
00000210: 144c 5abc 1010 9d3d ad59 643d 5ab3 473d
00000220: ad3d 083e 5cde 4f3d ad6d c23d 3faa 1abd
00000230: fac2 14be 0c2c 273e 8913 ac3e 7886 3c3d
00000240: d501 0e3e 7499 25be dbcc acbd ba63 fc3d
00000250: 9291 55be 10e2 15be f748 b8bd f2d0 62bd
00000260: f155 bd3d 4f2b a33d da19 273e 58f1 b4be
00000270: 01c3 8f3c d065 4f3e fb7a adbd d347 2abe
00000280: 9444 19be 61c0 17be 017b 00be e0af 4bbe
00000290: f5ab 76bd d749 e9bd e766 e63c 8a1a 34be
000002a0: 3158 fbbd 489f a33c 5b07 43be 5311 1cbe
000002b0: ffce 283e 7d3e d93d 7239 88bd 8272 cfbd
000002c0: 629b 61be eb90 40be 22d5 39bc 9ee9 323e
000002d0: 73c0 003e d33d d8bd a9b2 c8bc 698d 83bd
000002e0: 16db dc3d 480b ddbd 623d 8e3d 0f6d 593d
000002f0: c761 5a3d 9e47 23be 512e e6bb ae72 3f3d
00000300: d108 373e 52c4 e1bd 17dc 47be a7a3 f0bb
00000310: 6b87 35be 741b 6d3d 2e1c dd3d 5776 5bbe
00000320: 2207 d4bd 1112 463e 96d6 4e3d ce14 f8bc
00000330: c8e5 a2ba 86d4 ad3d 89bd 13be c260 1f3e
00000340: d30b 323e 55f0 d3bc 9606 a13d 8dde a13d
00000350: 29ed 923c 8cf8 dfbd e3e1 133e c128 36be
00000360: d1ee 10bc 7671 3ebe 3049 243d 30f2 1dbd
00000370: 6247 49bd 4a21 e13d c947 33be 3047 1cbe
00000380: 7f39 0a3e 1640 b03d 0d9c e33d 8a33 0e3e
00000390: d5aa c23d 2ab9 a43d 6ce4 cabd 25c1 c53d
000003a0: 38b9 4d3c 89b0 e7bd 36e0 493c a631 e0bb
000003b0: bada 17be 3dd7 bcbd 3f19 3a3e 03ee 65bd
000003c0: 8a69 333e bf25 03be fb11 f23d 151b 733d
000003d0: 038c 2abe efd9 e2bd 6666 2abe 0ed9 d93d
000003e0: da35 8c3d 0ba5 153e 3442 053e bf3d 133e
000003f0: ec2b 1b3e ab70 f43b 9af8 cc3d 8f84 2cbe
0.0816138 0.13026926 -0.02234149 0.08312 -0.16717465 0.038816992 -0.04406328 0.19326964
0.18344414 -0.1542358 -0.11817252 0.070019044 -0.039287515 0.016599273 0.23926838 -0.13588868
-0.03350614 0.084268816 -0.12877068 -0.02564785 0.13757984 0.059604824 -0.08394258 0.028824039
0.018066298 -0.24498038 0.05131741 -0.27689525 -0.11866177 0.06398847 -0.09567574 0.13770893
-0.05704645 0.12330288 0.13195671 0.17983225 -0.012403147 -0.12145359 -0.048359074 0.182206
0.07619832 -0.13616672 0.06666386 -0.10409904 -0.11538914 0.17486277 0.13030356 -0.044200268
-0.0069032656 -0.071736395 0.09989792 -0.15997644 0.09302306 0.025888892 -0.05667143 -0.0506105
0.012368582 -0.039366957 0.080699995 -0.10220312 -0.053233523 0.08936355 0.12286127 0.04450129
0.10558716 -0.1322995 -0.061138026 0.060345475 -0.15369302 -0.121747434 0.07631273 -0.07257656
-0.07260068 0.19262742 0.13353083 0.12621231 -0.026906945 -3.0485355e-05 -0.14698122 -0.16506112
-0.011230051 -0.0854714 0.047740106 -0.05185277 -0.008231408 0.025583856 -0.16433728 0.079516456
-0.1358995 0.010815717 0.031619955 0.13278797 0.03132 -0.10567805 -0.14404619 -0.061300997
0.16624741 0.044446263 -0.130241 -0.13573836 0.10518598 -0.11089789 -0.08345018 -0.12743895
0.0029726888 0.15171179 0.09932146 0.09081596 -0.10359921 -0.068405315 0.06589463 -0.16703439
0.09207871 -0.080859125 0.17401946 -0.101823285 -0.11920894 0.029878523 0.17328213 -0.12027629
0.02704802 -0.1243567 0.17631882 -0.008121763 -0.08653376 -0.028379947 0.033630386 -0.06832084
-0.03529964 0.1567122 0.08552646 0.26110274 -0.0133238025 0.07669079 0.055749584 0.048755027
0.13304777 0.050749168 0.09493575 -0.037760016 -0.14527503 0.16325396 0.33608654 0.046026677
0.13867886 -0.16171819 -0.084375106 0.12323709 -0.20856312 -0.14637017 -0.08998292 -0.055375047
0.09244908 0.07967245 0.16318455 -0.3534038 0.01754904 0.20253682 -0.08470722 -0.16628961
-0.14967567 -0.1481948 -0.12546922 -0.1989131 -0.060222585 -0.11391037 0.02812524 -0.17588249
-0.122726806 0.019973412 -0.19045775 -0.15240984 0.16485213 0.10607622 -0.06651582 -0.101292625
-0.2203193 -0.18805282 -0.011342319 0.1747193 0.12573414 -0.10558667 -0.024499254 -0.06423456
0.10783975 -0.10793167 0.069453016 0.053082522 0.053315904 -0.15945289 -0.0070245643 0.046740226
0.17874457 -0.11023773 -0.19517551 -0.0073437276 -0.17727439 0.05788751 0.107963905 -0.21431862
-0.10352923 0.1934283 0.050497614 -0.030283358 -0.0012428099 0.08487801 -0.1442777 0.15564254
0.17387323 -0.025871435 0.07862584 0.07903776 0.017935352 -0.109360784 0.14441638 -0.17788984
-0.008846001 -0.1859797 0.04010886 -0.038561046 -0.04914034 0.109926775 -0.17507853 -0.15261531
0.13498496 0.086059734 0.11113749 0.13886848 0.0950524 0.0804313 -0.09906849 0.0965598
0.012556367 -0.11312968 0.012321522 -0.006841856 -0.14829531 -0.09220741 0.18173693 -0.05613519
0.17520729 -0.12807368 0.11819836 0.059352 -0.16654973 -0.11076724 -0.16640624 0.10637103
0.06846209 0.1461374 0.13013536 0.14379023 0.15153474 0.00745972 0.100083545 -0.16847442

blocks.1.conv1.bias f4 [32]
00000000: 087b 7e3d 309c 043e 5a71 f4bd ae93 9abd
00000010: 8ede 64be 54cc 15be a8af db3d b679 adbd
00000020: ad00 1fbe ab72 273e 5546 cfbd 4c0f f9bd
00000030: 745c 5fbd 8d40 a5bb 71f2 03be 569c 15be
00000040: f42d 07be 44ef f2bc 5f49 df3d 318e 193d
00000050: 8bbc 063e b91f e2bd a1c5 1d3e e27c 7ebd
00000060: d5f8 3abd 6456 29be eca9 c93d 1579 093d
00000070: 977d 22bc a0e6 04bc 1f86 f43d a216 0c3e
0.06212905 0.12950206 -0.119356826 -0.07547699 -0.22350523 -0.14628726 0.10726863 -0.0847048
-0.15527602 0.16352336 -0.10120837 -0.12161121 -0.05453153 -0.0050430954 -0.12885453 -0.14610419
-0.13201123 -0.029655106 0.10902666 0.03748912 0.13157861 -0.11041207 0.1540742 -0.062130816
-0.04564746 -0.16536862 0.09846863 0.03356274 -0.009917638 -0.008111626 0.11939644 0.13680509

blocks.1.conv2.weight f4 [32, 1, 3, 3]
00000000: 9755 363e 20e9 9fbe be6d be3e 4060 99be
00000010: 6197 89be af50 e73d af89 203e cb9a 88be
00000020: a636 613e a043 8dbd 704c 353e 819d cc3d
00000030: f107 973e 5a11 43be 170c 803e 3080 2cbe
00000040: cf57 ee3b 44a6 3dbe 76ba 10be dd12 bebd
00000050: 758f a93c 24da 0ebe 439a 6dbe ea23 f13c
00000060: ddba 19be 59b4 08bd 8d48 0bbd dc75 81be
00000070: 70fd debd 9f89 593e 1d21 94be c972 403d
00000080: cba2 d03c 0acc e2bd c3d4 4fbd 749c 54be
00000090: 8558 25be 19c1 a8be 1a15 ef3d ef74 8abe
000000a0: 8be1 f83d ec63 a4bd 190b a13e 73f7 e939
000000b0: ac3f 5a3e 72db 263e 2c5c a33e 14f1 8c3e
000000c0: 4a11 85be 0bca b1bd 268f 09bc 67f2 223e
000000d0: ce43 dabd 5e73 c2be 0b4c b33e 217a b33e
000000e0: 53bf 78bc 04fc 183c 0118 56bd 79b5 a63e
000000f0: 86e9 56bd 6025 3bba bcde a43e dfc0 6a3e
00000100: a499 9d3d e9f9 973e 5647 9bbb 666d c53d
00000110: e751 8a3d 2b6e 063e 7f1e 353e 1646 0ebd
00000120: b48d ad3d a8be 8c3e 2492 133c eda6 3e3e
00000130: af8e 6f3e 4d27 a5bd 22e4 a53e aabb 7e3e
00000140: a470 8ebe 1850 12be 7682 e5bd 8bf4 2bbe
00000150: d066 c23d 3ed6 873d ebca 903e dea7 343e
00000160: c20d b03e 85ac 13bc ce3d 873e 076a 0abe
00000170: 3d07 9fbe a2f8 693e f026 033e 23fd 3d3e
00000180: afd8 9ebb f7a9 153e cec7 ab3a 8ddc 13be
00000190: 0cd9 bf3e dbeb 07be 6649 843e 8c7f 2bbd
000001a0: 59a5 28bd 3b8d 733e 9094 493e b5db 93bd
000001b0: 727c 623e e3f1 afbd c512 813d 5d3b 7a3e
000001c0: 1e9c ae3e 481d 90be e56f 0e3e 03fc ccbd
000001d0: fd78 36bd 8690 c23d 67d5 43be 18a0 1d3e
000001e0: c006 633e 5fda 3dbe ed0e 95be 5312 883e
000001f0: dbb0 af3d 8d5e fdbb 3276 8e3d 714f b3be
00000200: e56a 79be f100 90be ed25 afbe a32f 913e
00000210: 5be4 783e 30a4 b8bc 2fdc b4be b661 58be
00000220: 4520 58bd f40a 19bc 1ffc b1bd 0250 9c3e
00000230: 4a25 55be a573 003e acde a13d 0b48 313e
00000240: 7aab 0f3e 84f7 ab3e 82e6 6b3d 16c5 91bd
00000250: 3d1b e43d 157e 173d 80a9 3dbe 2252 a13e
00000260: 4ca9 31be 0066 343e 0fb1 ffbd bcca 813e
00000270: bb58 84bd faf0 39be 98e1 403e 01b9 063e
00000280: b2f6 763e 8834 953e 45e0 25be d083 aabe
00000290: a707 75be 6c2b 3a3d 553c 0dbd a51a 92be
000002a0: 0e93 6c3e 85c0 28be d129 9a3e 8286 5abe
000002b0: e4df 18bb 8e32 463d 2090 393e 520c 90be
000002c0: 900b 86be d31f 8b3e 0851 35be da01 18be
000002d0: 232a aeb6 70e9 9ebe 31b3 c33d e16e 8abe
000002e0: d791 a5be 03fa 98be 1a04 06be 8e89 acbc
000002f0: 9d0d 8c3e 4cb5 23be bcdc 19be 0c85 bdbc
00000300: 04dd 693c 707f 84be ecea f73d 1db8 973e
00000310: e381 673c be81 87be f626 803e 016a 8d3e
00000320: 6bb6 9e3e 46fc 6ebe b83a d33d 10be 81be
00000330: db6d 233e 5413 953e 5fa5 843e 64e6 0abe
00000340: b1bd 803e c8b9 90be f8fb d2bd 7f20 de3d
00000350: bfc9 8dbe e027 77bb 5eeb 1f3e 4dba 86be
00000360: db76 b03b 3013 30be d540 46bd 0810 a2be
00000370: 14ff f3bb fb2d 9e3e ac90 153e c384 30be
00000380: e0bb 14be 48e9 b43d 3db0 1f3e ccb7 0fbe
00000390: b8ff 09bd 5623 e9bd 6f9e b0bd 4292 913d
000003a0: 4fef c1bd 4180 2bbe b874 6ebe 942b 26be
000003b0: 3464 ab3d 6ba8 42bc aefb 913e f7f1 673d
000003c0: 0b08 8e3d 5570 9d3e 6744 3a3e 3d9e 8abd
000003d0: 0c5a c73d 949e 7e3d f0ab 77be e393 aa3d
000003e0: 1196 b6be 109c 603e d35e 80bd 28ce 6e3d
000003f0: 37aa 1cbe 6a67 bdbe 9d17 353d 39f5 d3bd
0.17806087 -0.31232548 0.37193102 -0.29956245 -0.26873305 0.11294686 0.15677522 -0.26680598
0.21993503 -0.06897664 0.1770494 0.09990979 0.29498246 -0.19049588 0.25009224 -0.16845775
0.007273651 -0.18520457 -0.14133629 -0.09280942 0.020698288 -0.13950402 -0.23203377 0.02943607
-0.15012689 -0.033375118 -0.034004737 -0.25285232 -0.10888183 0.21243905 -0.28931513 0.046984468
0.02546825 -0.110740736 -0.050740015 -0.20762807 -0.16147049 -0.32959822 0.11673947 -0.27042338
0.12152394 -0.08026871 0.3145378 0.00044625587 0.21313351 0.16294649 0.3190626 0.27527678
-0.25989753 -0.08681115 -0.008395946 0.15912782 -0.10657464 -0.37978643 0.35018954 0.35054114
-0.015182334 0.009337429 -0.052268986 0.32560328 -0.0524688 -0.0007139053 0.32201183 0.22925137
0.0769532 0.29682854 -0.0047387285 0.09640007 0.06753903 0.13127963 0.17687415 -0.034734808
0.08474293 0.2748921 0.009007011 0.18618365 0.23394273 -0.08064137 0.32400614 0.24876276
-0.27820313 -0.14288366 -0.11206524 -0.16792504 0.09492266 0.0663266 0.28279814 0.17642161
0.34385496 -0.0090133 0.2641434 -0.13517009 -0.3106021 0.22848752 0.12807822 0.18553595
-0.004847608 0.14615618 0.0013105811 -0.14439602 0.3747028 -0.13273565 0.2583725 -0.041869685
-0.041173313 0.23784344 0.19685578 -0.0721964 0.22117785 -0.08591058 0.06302408 0.24436708
0.34103483 -0.2814734 0.13909872 -0.10009005 -0.044548977 0.09500222 -0.19124375 0.15393102
0.22170544 -0.18540333 -0.2911295 0.2657648 0.085786544 -0.0077322186 0.06956138 -0.35021546
-0.24357183 -0.28125718 -0.34208623 0.28356656 0.2430586 -0.022539228 -0.35324237 -0.21131024
-0.05276515 -0.00934099 -0.086906664 0.3052979 -0.20815006 0.12544115 0.079037994 0.17312638
0.14030257 0.33587277 0.057592876 -0.07117669 0.11138008 0.036985476 -0.1852169 0.31507975
-0.17349738 0.17617035 -0.12484943 0.25349987 -0.064622365 -0.18158332 0.18836057 0.13156511
0.24117544 0.2914164 -0.16198833 -0.3330369 -0.239287 0.045451567 -0.034481365 -0.28535953
0.23102972 -0.1647969 0.30110028 -0.21340373 -0.0023326809 0.048388056 0.18121386 -0.281344
-0.26180696 0.27172717 -0.17706692 -0.14844456 -5.1905095e-06 -0.31037474 0.095556624 -0.2703772
-0.3233783 -0.29878244 -0.13087502 -0.021061685 0.27354136 -0.15987128 -0.1502561 -0.02313473
0.014273886 -0.25878477 0.12105355 0.29632655 0.0141300885 -0.26466173 0.25029725 0.27619937
0.3099855 -0.23338422 0.10313934 -0.2534032 0.15959875 0.2911631 0.25907418 -0.1356445
0.25144723 -0.2826674 -0.103019655 0.10846042 -0.27692983 -0.0037712976 0.15617129 -0.2631401
0.0053852624 -0.1719482 -0.048401672 -0.31652856 -0.007446179 0.30894455 0.14605969 -0.17238145
-0.14524794 0.08833557 0.15594573 -0.14034957 -0.033691138 -0.11383693 -0.08623969 0.071079746
-0.094694726 -0.16748144 -0.23286712 -0.16227561 0.083687216 -0.011880974 0.2851233 0.05662724
0.06935128 0.30749765 0.18190156 -0.06768463 0.09733972 0.06216295 -0.24186683 0.083289884
-0.35661367 0.21934533 -0.06268086 0.058302075 -0.15299307 -0.3699296 0.044211973 -0.10349507

blocks.1.conv2.bias f4 [32]
00000000: 3087 b53b b4a9 a3bd 5987 523e 9645 1e3e
00000010: 63b4 eebd 97cb 263e 85d1 33be 4dab 87bd
00000020: aaef c23d b000 0dbe b8a8 95be 1f6c 6ebe
00000030: f562 52be 73a7 61be c383 253e a2d6 24be
00000040: 6d44 163e e5ee 5bbe 3d68 0abe ad15 3fbe
00000050: 3f9c 4ebd 1890 423e 0ced 083d d52b 82be
00000060: 496f 5abe 2bf9 bf3d 7279 47be b254 063e
00000070: 52ca 58bc 934a 8dbe c870 fa3d b8b1 743d
0.0055397972 -0.07991353 0.20559444 0.15456232 -0.116555 0.16288601 -0.17560394 -0.0662447
0.095183685 -0.13769794 -0.29230285 -0.23283432 -0.20545562 -0.22036533 0.16163544 -0.16097501
0.1467454 -0.2147785 -0.13516326 -0.18660612 -0.050441977 0.1900028 0.03342919 -0.25424066
-0.21331514 0.09373697 -0.19479921 0.13118246 -0.013231831 -0.27595958 0.122285426 0.0597398

blocks.1.conv3.weight f4 [32, 32, 1, 1]
00000000: 1446 053d 6765 013b 6f65 ea3d 4552 dabd
00000010: 3033 9abd a277 cfbd 4d63 15be 6684 c13d
00000020: aa78 43be 986a bcbc 9ca8 2a3e 236a ebbc
00000030: d1ca 12be 5233 0abd 606b e3bd ec26 4a3d
00000040: 65e1 25be b00f 88bd 08fe a03d 53dc b8bd
00000050: 40c2 0f3c 4818 e1bd 87e0 803d 2e64 d2bc
00000060: 4940 0cbe 3f1e 073e b75f be3d 857c 8abb
00000070: ce01 dc3d 59d2 b5bd da70 983d 8730 c73d
00000080: 898e 4ebd 1ab6 85bd ed20 f33d 6909 173d
00000090: dbd7 c83b a05d 38be 7fa4 4fbd 7143 7e3d
000000a0: e66d 113e d52e 4f3e c682 173e a2e2 07bd
000000b0: f56f 0cbe 4c24 2a3e f476 ff3d 9559 ec3d
000000c0: 4cee 803d acf1 2cbe 438a 133e 7703 98bd
000000d0: 085d ebbd 8bf5 a43d 8c65 97bc cfd4 2a3e
000000e0: 12f8 0bbe 6bd6 e23d e998 1d3d 3c86 4d3c
000000f0: be47 1a3e f568 07be 209e 4fbc 4c3a efbd
00000100: 32b5 133e 9da9 cc3d 7a48 c33d 72da e23d
00000110: 501d 1a3d 1eba ccbd 07db 44be af35 0a3e
00000120: c0c3 afbd ac8a 283e 711f 273e 2d90 dfbd
00000130: 1fde 19be ef5f 13be adf3 4c3c f8c4 443d
00000140: fdec d5bd 2f90 44bd e02e 2e3e 3403 043d
00000150: 0251 28be e44a 2b3c 870f 123e a735 9bbd
00000160: 97a4 84bd 7b46 31be 9147 903d 01e6 033e
00000170: be53 ab3c d63b 63bd 7d46 c1bd 1907 b7bc
00000180: 19a7 44be 8185 fdbd 84c7 ed39 94ae 73bd
00000190: d6ef 77bc 3040 e9bc b905 edbc f842 1dbe
000001a0: c2bd 753d d30e 56bd fa3e 233d 3efc 03be
000001b0: d12f 87bd a79c afbd 4d20 c53c c85b 91bd
000001c0: c6e5 f43c d2ec 113e 11da 5cbc 3e71 da3d
000001d0: c10a 253e 150b bf3d e1c5 d0bd b1c3 05be
000001e0: 0074 db3d f38d e13d 5b32 b23d 3422 3a3e
000001f0: f8e6 143e f95c 073e e7fe 20be 9893 ccbd
00000200: 513a 28bd 7116 15bd 10e0 e2bd eb52 bc3d
00000210: 244e e9bd a1ff 023e b007 443e 202c d3bd
00000220: 2766 2abe 2312 1e3d f809 203e 7a4c 5abd
00000230: 2a65 ea3d eabf 99bd f0e4 943a 7d7b 12be
00000240: 2e57 24be 03e2 0abe 01fb fbbd 054b a03d
00000250: 050f 30be 5dbb 55bd fbab c13d 67de 3b3d
00000260: 5c2b f33d 84f7 5a3d c6e5 fa3c ef26 013b
00000270: 7cb2 103e 91d7 2a3d ae4c f8bd ac70 acbd
00000280: d203 2cbd ca5a 1c3e 1023 c33d bfac 2f3e
00000290: 8b32 febd 4e11 2d3e 7662 1ebe d8f0 043e
000002a0: 5346 d4bd f820 343c 36e6 0cbe e8c9 f93d
000002b0: 97fd aabd dbb5 b8bb 6be9 313e e490 063e
000002c0: b6a3 d4bd 33d6 2dbc 54d5 6ebd dd83 c13d
000002d0: 1029 3ebd 9a9e 93bc ce4f 95bc 85d8 c53a
000002e0: 1349 e03d bcd1 ffbd 5db1 c53d a8e3 7a3d
000002f0: bd75 8f3d d1d1 f63d 1885 3b3e 19d7 febc
00000300: 4c26 bebd 17c4 303e 0ba3 453e dda8 cfbb
00000310: 2f79 a83d 4d3a 01be 4183 a43d 773c 093d
00000320: e36d 473c 355e 783d 3a69 483c dc3b eebd
00000330: 4844 3fbe cd90 9c3d 30db f7bd b02e fb3c
00000340: 2055 02be 3405 c13d bfb5 1bbe c6a7 9ebd
00000350: 0ec9 62bd 93ca 8d3d 9c97 013e 0283 29bd
00000360: 47a7 fdbd 5a35 d43c 794b 133e 4d3f 7b3d
00000370: 4ed3 1fbd a69b c9bd b42c 593d 61bd 0d3c
00000380: 020b 02bc 8b6b 74bd 57ab 503e 18f5 1fbe
00000390: af93 53bd 6c35 f63d 78ad 673d f5a8 083e
000003a0: cd11 413e 5b8b bfbd 50c3 fcbd aeae a1bd
000003b0: 999b ab3c 4c30 6abd fdc1 163e 55fc 04be
000003c0: 0f0b c43d 32ab f53d f20f 24be d7bd 18be
000003d0: 740b 49bd 8104 093e 4e03 d53d 9cf3 e2bd
000003e0: a9e5 5bbb fc1e 98bb f6cc db3c 6623 0e3d
000003f0: 94f0 563e 3d9c d43d b67b 07be 9dcc 00be
0.032537535 0.0019744278 0.11445128 -0.10660223 -0.075292945 -0.1013024 -0.14588661 0.09449081
-0.19088998 -0.023000047 0.16665882 -0.028737133 -0.14335181 -0.03374035 -0.111044645 0.049353525
-0.16199262 -0.06643617 0.078609526 -0.090263985 0.00877434 -0.109909594 0.06292825 -0.025682535
-0.13696398 0.13195132 0.092956 -0.0042262697 0.10742532 -0.08878011 0.074434 0.09726053
-0.0504289 -0.06528874 0.118715145 0.03687421 0.0061292476 -0.18004465 -0.050693985 0.062076036
0.14202079 0.20232709 0.1479598 -0.03317512 -0.13714583 0.16615409 0.124738604 0.11540524
0.062954515 -0.16889066 0.14408211 -0.07422536 -0.11492354 0.08054646 -0.018481039 0.16682743
-0.1366885 0.11076053 0.038475905 0.012544211 0.1506643 -0.13223632 -0.012671977 -0.11681041
0.1442459 0.09993289 0.09535308 0.110768214 0.03762561 -0.099964365 -0.19224177 0.13497041
-0.08582258 0.16459149 0.16320588 -0.10916171 -0.15026139 -0.14392065 0.012509269 0.048039407
-0.104455926 -0.047989067 0.17010069 0.032229617 -0.16437152 0.010454867 0.14263736 -0.07578593
-0.064767055 -0.17312042 0.070449 0.12880708 0.020913955 -0.055476986 -0.09437273 -0.022342252
-0.19204368 -0.123789795 0.00045352813 -0.059492663 -0.015132865 -0.02847299 -0.028933393 -0.15357578
0.05999542 -0.05226023 0.03985498 -0.12889192 -0.06600917 -0.08574801 0.024063254 -0.07097584
0.02989472 0.14250496 -0.013479725 0.106661305 0.16117384 0.093282856 -0.101939924 -0.13062932
0.107154846 0.11013403 0.08701011 0.1817711 0.14541233 0.1321906 -0.15722238 -0.09989089
-0.04107124 -0.036398355 -0.11077893 0.09195503 -0.11391857 0.12792827 0.19143558 -0.103111506
-0.1664053 0.038591515 0.15628803 -0.05329559 0.11445077 -0.07507308 0.0011359733 -0.1430492
-0.16048881 -0.13562779 -0.123037346 0.07826809 -0.1719323 -0.052180637 0.09456631 0.045866396
0.118735045 0.053458706 0.030627143 0.0019707044 0.14130586 0.041709486 -0.121240005 -0.08419928
-0.04199583 0.15269008 0.09528172 0.17155741 -0.12411984 0.16901132 -0.15467247 0.129825
-0.10364976 0.0109941885 -0.13759694 0.12196714 -0.0834915 -0.0056369132 0.17374198 0.13141209
-0.10382788 -0.010610151 -0.058308914 0.09448979 -0.04642588 -0.018019963 -0.01822653 0.0015094435
0.10951438 -0.124911755 0.0965297 0.061252266 0.07004879 0.12051738 0.1831249 -0.031108426
-0.09284648 0.17262302 0.19300477 -0.0063372687 0.08226239 -0.12619896 0.08032847 0.03350493
0.012172195 0.060636718 0.012232119 -0.11632511 -0.18678391 0.07644806 -0.121023536 0.03066191
-0.12727785 0.094248205 -0.1520605 -0.07746844 -0.055367522 0.069234036 0.1265549 -0.041384704
-0.12385421 0.025904346 0.1438426 0.061339665 -0.039019875 -0.09844141 0.053021148 0.0086511085
-0.007937195 -0.059672873 0.20377861 -0.1562084 -0.051654514 0.12021908 0.056561917 0.13345702
0.18854447 -0.09352752 -0.123419404 -0.07894646 0.020948218 -0.057174966 0.14722438 -0.12986882
0.09572422 0.119955435 -0.16021708 -0.14916168 -0.04908319 0.13380624 0.10401021 -0.11081621
-0.0033553636 -0.0046423655 0.026831131 0.034701727 0.20990211 0.103813626 -0.13230786 -0.12578054
